checkpoints/lstm_with_c.pt (torch, 175280 bytes, 6 tensors)

rnn.weight_ih_l0 f4 [400, 5]
00000000: 683b b1bd f8e1 853c e9ee ab3b 7767 5b3c
00000010: 621a c43c a98e 4d3d 3feb 633d c480 2cbd
00000020: 1008 61bc 0623 febc a370 5abd c22d a1bd
00000030: e719 5abd c3bb 51bd b992 df3c 8787 903c
00000040: 55fb 53bd bf55 ebbd c47f 96bc 94e3 11bd
00000050: 71d9 b9bd 96b0 ef3c 64d5 a93d 9412 9a3c
00000060: 4401 f73c 692c 20bd 1106 743d c01b 583a
00000070: a3ba 023c 46ab a3bc eadb 403d c761 84bd
00000080: f08a 8ebd f248 3d3c e286 1cbd f79a 923d
00000090: 9e0d 783d 892e 9d3d bd8f c63c eb13 fd3c
000000a0: 0353 903d e5e1 54bd 9593 753c eef6 2d3d
000000b0: 473a 5ebc a579 6e3d 6062 bbba e528 a93d
000000c0: 2e25 6d3d 27ac 1c3d cef7 2ebd 0ae2 afbd
000000d0: 32ad 2b3d 2ee1 73bc bc70 e7bc 8320 a5bd
000000e0: a804 193d b554 70bd 90ea 2b3c fe2c aabd
000000f0: 6aeb 8abd a16e f53c 8e9b 43bd 1e0d 91bd
00000100: 6ef0 6ebd 06db b8bd 6ca5 b1bc 7206 2dbc
00000110: 05cb 24bd ed66 b63d dc0e 8abc 1eb7 2a3d
00000120: 264a 9a3d 1c0f 123d 118f 4d3d 26ba c7bd
00000130: e22d 903d 7227 37bd ec2f 8f3d 6234 283d
00000140: 985d 033c d47f ec3b af16 383d 3e00 513d
00000150: fd64 61bd 44a2 a0bd a793 163d 3a49 123d
00000160: f4c2 dabd 47e5 df3d 2aa4 3abd 5aca 5dbc
00000170: 56bc d8bd a2c4 833c 218c f9bd 04fc 4dbc
00000180: 0d65 5a3c 70f9 8f3d 8356 d8bd 39d8 adbc
00000190: 046f a6bc 00e5 92bd 58df e1bb 1c56 2f3d
000001a0: 2bf3 c0bc d72b 9fbc 9927 993d 0354 3bbc
000001b0: 8bdc 0d3d b991 69bd dd7c 7d3d 501a 9ebd
000001c0: e6dc 973d 1c37 1f3c 3cea 183c 33e5 483d
000001d0: 8c1d 1cbd d3d7 943d 674b 8a3d b745 b43d
000001e0: aa88 95bd 04f8 6ebd 7360 4cbd 2b6d ccbd
000001f0: 0d92 c23d 8f0f eebd ecc2 4dbd b109 183d
00000200: 13ae 16bd 8bd3 c4bd e786 ba3c 8b27 8f3d
00000210: 14ad c0bd c85e a7bd 44da c2bd 8457 94bd
00000220: b968 1c3d e6bb 463d bf7f c53d 5d9c 273d
00000230: cc17 db3c b5d1 a8bd 2490 f1bc eb67 99bd
00000240: 6689 b2bd eb1c 8c3d 69b7 6e3d 0f04 013d
00000250: b69e d43c e4f1 c13d b8e6 ad3d d565 e43a
00000260: 7e4b 8abd bd77 aebd ed40 d43d 3839 97bc
00000270: b01d e9bc f11a 4b3d d511 a13d e679 893d
00000280: 58a2 f63a c6f6 dbbc 15d3 a6bd 4ba8 64bd
00000290: cc8f 90bd 6bf9 afbd 6e7f 4a3d 6213 6a3b
000002a0: 0cfd 9abc 5906 253d 6e21 eb3b 5ebe 0dbd
000002b0: d82c b7bc 12c9 d4bd 5efa 79bd 6260 853d
000002c0: 44ff 2d3d eb79 203d cd17 5bbd 0128 94bd
000002d0: b5f0 7fbd 246a 2dbd 616b fa3b 6a79 263d
000002e0: b190 e2bd 3b75 27bd 359f 8e3d f205 363d
000002f0: 92bc d73c 7a51 7abd 43b0 74bd e6e9 66bd
00000300: 3258 993c 5e22 b83b e150 34bd 9a0c 80bc
00000310: 7cca 7a3d 0643 09bd 9247 9f3d 02f9 1fbd
00000320: d97b e83d 0ad6 76bd 66b3 b43d cd25 1e3d
00000330: 9a3b 813d c3f6 afbd 5b0f c5bd 99e7 88bd
00000340: ee46 85bd 38b9 08bd d4d2 823d 3c05 883d
00000350: 1712 cb3d bb1f ef3d 96b1 2c3c ab48 46bd
00000360: e109 b63d 2f60 d2bd 2236 8f3d 635e 633d
00000370: eeda 43bd eee8 8abd f509 b33d 16b0 ae3d
00000380: db01 13bd 7af4 8b3d 2088 e7bb 1074 013d
00000390: 388a 873d 1b5f f7bd 85de 9cbd b708 c83d
000003a0: de84 0b3d c8e9 bebd 8050 a33c f953 ccbc
000003b0: f533 783d 45b9 f13c f4e7 a83d 9751 babd
000003c0: 861e e73d 425f a63d 337e 2f3d a442 fb3d
000003d0: 5639 c8bd 54b6 aebc 7e2f 69bd 1261 a0bd
000003e0: b77d 8bbd 13d6 9abd 3154 6fbd bc62 7f3d
000003f0: bc9a e13c 326c f73c 5afe 0ebd ffb7 41bd
-0.08653909 0.016343102 0.005246986 0.013391367 0.023938362 0.05018488 0.05564427 -0.042114988
-0.013734832 -0.03102256 -0.053330075 -0.07870056 -0.05324736 -0.051204454 0.027291643 0.01764275
-0.05175336 -0.11490964 -0.01837147 -0.035617426 -0.09074677 0.029259007 0.08292654 0.018807687
0.03015197 -0.039104853 0.059576098 0.0008243881 0.007979068 -0.01997913 0.047084726 -0.06463962
-0.06960094 0.011553036 -0.03821457 0.071584634 0.06055986 0.076748915 0.024238462 0.030893287
0.07047083 -0.051973242 0.0149888 0.04247182 -0.013563699 0.058221478 -0.0014296286 0.08259753
0.057896785 0.038250115 -0.042716794 -0.085880354 0.04191322 -0.01488523 -0.028251998 -0.08062842
0.037357956 -0.058674533 0.010492936 -0.08309363 -0.06783183 0.029959979 -0.04775577 -0.0708258
-0.05833476 -0.090261504 -0.021685325 -0.010560619 -0.040232677 0.0890635 -0.016852789 0.04167854
0.07533674 0.03565894 0.050185267 -0.09752302 0.070400015 -0.044715352 0.06991562 0.04106558
0.00801792 0.0072173867 0.044943508 0.05102562 -0.05502795 -0.0784345 0.036761906 0.035714366
-0.106817156 0.10932403 -0.045566715 -0.013537014 -0.10582797 0.016084973 -0.121849306 -0.012572292
0.013329756 0.07029998 -0.10563376 -0.021221267 -0.020316608 -0.071725845 -0.0068930797 0.04280673
-0.023553452 -0.019430084 0.07478256 -0.011433604 0.034634154 -0.057023738 0.061886657 -0.077198625
0.0741518 0.009717729 0.00933319 0.049046706 -0.038114116 0.07267728 0.06752663 0.088023596
-0.07301457 -0.058341995 -0.04989667 -0.0998176 0.09500513 -0.11624061 -0.05023472 0.037118617
-0.036787104 -0.09610661 0.022769405 0.06989964 -0.09408012 -0.08172375 -0.09514287 -0.07243255
0.03818581 0.048519038 0.09643506 0.040920604 0.026744746 -0.082431234 -0.029487677 -0.07490524
-0.08717613 0.06841453 0.058280382 0.03149801 0.025954586 0.09469965 0.08491272 0.0017425368
-0.0675268 -0.08518932 0.10363946 -0.018459901 -0.028456539 0.04958624 0.07864729 0.067127034
0.0018816693 -0.02685107 -0.081457295 -0.05582456 -0.07058677 -0.085924946 0.049437933 0.003571712
-0.01891949 0.040289257 0.007175616 -0.034605376 -0.02236025 -0.103899136 -0.061029784 0.06512524
0.04247977 0.03917877 -0.053489495 -0.07234193 -0.062485415 -0.04233755 0.007642195 0.040643133
-0.11062754 -0.040883284 0.0696396 0.044439264 0.026335035 -0.06111286 -0.05973841 -0.056375407
0.018718813 0.0056193313 -0.044022445 -0.015631009 0.06122826 -0.033511184 0.07777323 -0.03905583
0.11351747 -0.060262717 0.0882328 0.03861027 0.06310196 -0.08591988 -0.096220694 -0.06684799
-0.065076694 -0.033379763 0.063878685 0.066416234 0.0991556 0.11675974 0.010540387 -0.048409145
0.08888603 -0.10272252 0.06992747 0.055509936 -0.04781621 -0.06782709 0.087421335 0.085296795
-0.03589044 0.068337396 -0.007065788 0.031604826 0.0661816 -0.12078687 -0.0765963 0.09767287
0.03406226 -0.09321934 0.019935846 -0.024942385 0.060596425 0.029507289 0.082473665 -0.09097593
0.11285119 0.08123638 0.042844962 0.1226857 -0.09776561 -0.021327175 -0.056930058 -0.07831015
-0.068110876 -0.07560363 -0.0584299 0.06235002 0.027539603 0.030202959 -0.034910537 -0.047294613

rnn.weight_hh_l0 f4 [400, 100]
00000000: 40d0 313d fb42 ac3d dcaf d3bd cd5f c33d
00000010: fcd6 04bd c109 99bd c234 bfbd e7dc 04bd
00000020: 3086 063d fa43 d13c 04e1 18bd c3b6 12bd
00000030: 0282 613d f290 a2bb f9e9 233d 7a12 a6bb
00000040: 29d9 9c3d 46a4 cebd ca48 913d 1dc9 183d
00000050: 29b4 a8bc d0fc a33d f5ed d73b 19a5 faba
00000060: c4f3 8fbd 5984 963d ca12 4abd af63 d23c
00000070: b186 643d a8c0 843d 3ab5 0e3d d4c3 a23d
00000080: 58c7 7fbb 8003 9abd 1332 493a 7e3f f83c
00000090: 67e5 82bd 4512 973d baaf 9abd e337 d33c
000000a0: 6792 7d3d ced1 72bd 6a56 3fbd f494 a03d
000000b0: 4c30 87bc 5e36 4dbd 47d2 74bd ae1c 70bd
000000c0: 5db8 29bc ea5e c7bd 5b2a f13c ad7e 9dbd
000000d0: 5d5d 40bd 0f58 563c d71e f6bc fad4 a83d
000000e0: d4c1 80bd 094f b03d 2dc4 803d 08f1 973d
000000f0: f084 dbbc a406 69bc 5e10 b1bd 4b95 d23c
00000100: 9374 2dbc 5221 5b3d 363b 6b3d 2a46 dcbb
00000110: fc60 b9bd 1dcf 8cbd 8a7d 20bd 2992 f6bc
00000120: 328b 993d 7acc 52bd 76fb 433d 196a 8ebd
00000130: aa7c 3f3c 7a5b 7cbd a041 b3bc dcc4 823d
00000140: 1f5d aebd f3f9 8a3d 0334 37bd b45f a23d
00000150: a71a 72bd 44fa 8e3d 23b1 a23d e257 99bd
00000160: f378 b93d 5b30 0e3c 65dd 8e3b 7d0a 2cbd
00000170: 8dfd 9fbd 2434 893d a98d 783c 8e06 1e3d
00000180: b5e0 373c 843b 8cbd 6e43 bc3d 628c ee3c
00000190: 8532 a43d e735 77bd 2b8e 693d 064e 693d
000001a0: 5d39 cc3d bd8e 0d3d 42da 0bbd 1273 86bd
000001b0: 1942 43bd 3f7a 723d 3503 bbbd 7eff 633d
000001c0: 9395 1c3d 7243 3bbc d8b9 b93d ced0 203c
000001d0: 2b75 873d 4218 343d a534 bebd 7a6b 5abd
000001e0: aff6 e2bc c8f6 f23c 3ffd b0bc aa69 babc
000001f0: 5141 0d3c e4ca 913c 08f6 193d 96c9 823d
00000200: 9f37 863c 43e6 143d add8 b13d 1ab5 983d
00000210: 6f48 b03c 7dd8 a73d 5605 693d 026f 1d3d
00000220: bbae 0fbd 8d5c babd fca1 b83d 0617 283b
00000230: d7d0 473b 0a18 95bd ef02 393d 8be9 26bd
00000240: fe76 0abd ea75 243d 7285 88bc 0c43 ddbc
00000250: 1df6 81bd 8a44 18bd 9d37 78bd 6c7f 74bd
00000260: bdd4 b93c eb2b 473d 99ae cd3c 2563 3bbd
00000270: 7ad2 10bc e887 9d3d fe9c ba3d 1b99 0ebd
00000280: 0927 b13d ab44 a1bd 2c85 383d 040b 7bbd
00000290: 1e30 9abd cc69 8a3d 9e6b 76bd 5d68 523d
000002a0: 01ca 2abd 9999 973c 99c9 37bc b484 c03d
000002b0: a4cf 90bd 9dc2 06bd b243 403d 5a07 d53c
000002c0: 8595 923d 1f9b c0bc b782 763d 81e7 fd3b
000002d0: c5d6 a5bd 8f03 c1bd 3720 043d 5abb 653d
000002e0: 9968 b7bb 140a 993c 3b0e c1bd 95b8 e1bc
000002f0: 0e35 a93d 50f7 b93c e8f6 eb3b 9c18 38bd
00000300: 7164 80bd 292a 913d 5c77 a33d 1e9f 413d
00000310: e935 b9bd 39f7 c0bc d28c 463d 231f c63b
00000320: 277a 4abd bfa9 b93d cf1d 8bbd 5eaa 963d
00000330: bb0e 85bc a732 493d dcd3 a1bd f4f3 3bbd
00000340: f017 643d 941a 65bd 1bf8 883d 629d d5bc
00000350: f0b9 1ebd f58a 5dbd 3c0e 8d3d e83c a93b
00000360: 680d 803d a11b 753d 5c54 8dbd fc16 073d
00000370: 4079 833d 0b0c 4ebc ff17 12bd aac8 8e3c
00000380: 20ea 35bd 681a 84bd d599 9a3b 58a4 c6bc
00000390: 58fb a1bc d704 303d df93 aa3d a928 d3bb
000003a0: bce8 923d 0950 a33d 02db f2bc 8e08 c23c
000003b0: 4cd5 573d 1079 14bd abe6 aebd dc4c a9bd
000003c0: 1050 05bc b3d4 3dbd f32c 66ba fa5b ad3d
000003d0: 5bef 9abc effe 003d 3ece af3d 1665 57bd
000003e0: 691d 53bd f68f a7bd 22ca 343d af15 893c
000003f0: 241f f2bc a465 afbd 6ea6 25bd feb7 9dbd
0.043411493 0.08411213 -0.10336277 0.09539757 -0.032431588 -0.074725635 -0.09336235 -0.03243723
0.032842815 0.025545109 -0.037323967 -0.035818826 0.055055626 -0.0049611265 0.040018056 -0.0050681205
0.076586075 -0.100899264 0.070939615 0.03730117 -0.02059372 0.080072045 0.006589646 -0.0019122689
-0.070289165 0.07349462 -0.049334325 0.025682298 0.055792514 0.06482059 0.0348408 0.079475075
-0.003902873 -0.07520199 0.0007675003 0.030303713 -0.06391411 0.073765315 -0.075530484 0.025783485
0.0619072 -0.059282117 -0.04671327 0.078409106 -0.016502522 -0.050100677 -0.05977085 -0.0586211
-0.010358897 -0.097349 0.029439142 -0.07690177 -0.04696404 0.013082518 -0.030044002 0.08243747
-0.0628697 0.08608825 0.062874176 0.0741902 -0.026796788 -0.014222775 -0.086457 0.025705954
-0.0105868755 0.053498574 0.057429515 -0.0067222314 -0.090517014 -0.06875441 -0.039182223 -0.030098991
0.074972525 -0.051464535 0.047847234 -0.0695383 0.011687437 -0.061610676 -0.021881878 0.06385204
-0.08513855 0.06785955 -0.044727337 0.0792841 -0.05910745 0.06981328 0.079439424 -0.074874654
0.09056272 0.008678521 0.0043598884 -0.04200219 -0.07812033 0.06699398 0.015170493 0.03858047
0.011223008 -0.06847289 0.09192549 0.029119674 0.08017448 -0.06035414 0.057020348 0.056959175
0.09971879 0.034559954 -0.034143694 -0.06564917 -0.047670458 0.059198614 -0.09131471 0.05566358
0.038228583 -0.011429654 0.0906865 0.009815408 0.06614145 0.043968447 -0.09287385 -0.053325154
-0.027705519 0.02965869 -0.021605132 -0.022755463 0.00862153 0.017796941 0.03758815 0.06386106
0.016383944 0.036352407 0.08683906 0.074564174 0.021518914 0.08195589 0.056889854 0.038435943
-0.035078745 -0.09099684 0.09015271 0.0025648489 0.0030489468 -0.07279976 0.045168813 -0.040750068
-0.033804886 0.040151514 -0.016665194 -0.02700951 -0.063457705 -0.03717474 -0.060599912 -0.05969183
0.02268445 0.048625868 0.025107669 -0.04574885 -0.008839244 0.07691938 0.09111975 -0.03481398
0.086500235 -0.078744255 0.045048878 -0.061289802 -0.07528709 0.067584604 -0.060161225 0.05136906
-0.041696552 0.018505858 -0.011217498 0.09400311 -0.07070854 -0.03290044 0.04693956 0.026004482
0.07157425 -0.023511468 0.060183253 0.0077485447 -0.08097605 -0.09424507 0.032257285 0.056086875
-0.005597186 0.018681563 -0.09426542 -0.027553836 0.082620725 0.022700936 0.0072010644 -0.044945344
-0.06269158 0.070881195 0.0798175 0.047270887 -0.09043486 -0.023555385 0.04847414 0.0060461923
-0.0494329 0.090655796 -0.06792795 0.07356714 -0.016242376 0.04912057 -0.07901737 -0.04588695
0.05568689 -0.05593355 0.06687947 -0.026076023 -0.038751543 -0.054087598 0.068874806 0.0051647313
0.06252557 0.059840802 -0.06900856 0.032980904 0.06419611 -0.012576113 -0.035667416 0.017429668
-0.044412732 -0.06450349 0.0047180452 -0.024248287 -0.01977317 0.042973366 0.083289854 -0.006444056
0.07173297 0.0797425 -0.029645447 0.02368572 0.05269365 -0.036248267 -0.0854009 -0.08266613
-0.008136764 -0.046345424 -0.00087805017 0.08464809 -0.018912962 0.031493124 0.085842595 -0.052586637
-0.05154172 -0.08181755 0.04413808 0.016733972 -0.029555865 -0.08564308 -0.040441923 -0.07701109

rnn.bias_ih_l0 f4 [400]
00000000: 2a36 d13d cdb7 a03d df41 623d 38ee 95bd
00000010: f3c7 89bd 8bd6 0a3d 256d 67bd 88a4 02bc
00000020: 82a0 2cbd bcd7 1fbd e3f8 913d 96aa cc3d
00000030: 3b16 f9bb eaaa b83d ef1c cf39 d1fc 743d
00000040: a0ef f6bc 9a1b a33b 1299 b53d 086c 8dbd
00000050: 945d 95bd f50e a83d 3b09 763d bf83 e43d
00000060: 261d 7f3d 6572 20bd dc25 09bd bc06 e0bc
00000070: 0aa4 033e c11d 1dbd e439 c23c 6339 99bd
00000080: 1e04 06bd d154 463d b6b0 83bd 57b8 ec3d
00000090: b0aa 733d 1b8b 8a3c e661 8d3d 09a4 29bd
000000a0: a8b7 8fbd 19f3 923d 9f71 5dbd 91b4 e33d
000000b0: eb00 703d bab2 c33d 8dcd e73b 3a08 c93d
000000c0: 8372 45bd e31d f23d 9428 0c3d 5032 1d3d
000000d0: 1484 463d d90f 963b 31e9 aabc 4e4d e13d
000000e0: 6ecf ffbb 7eb8 1cbd 9405 4abd fb89 da3d
000000f0: 1ea3 373d a5b4 f13d ac56 76bd 2396 b83d
00000100: e5c5 c5bc 0658 c53d 5ac9 1abd c334 c33d
00000110: 10c9 1bbd 2554 be3d beb2 d33d 2f4b a7bc
00000120: d3fd 3e3d 4e4a 943c 02e6 b63b c39c 013d
00000130: 12e0 8e3b 875f 40ba cd28 843d 245f 44bd
00000140: b2a2 9cbd 914b 2cbd 8f91 9d3d 5fc4 ecbc
00000150: c0a7 4c3c 361a f73c 85e0 443d 9b50 7e3d
00000160: 154a cdbc 396f b23c a311 ad3d ce2a 55bc
00000170: 6c36 123d dfe6 133d 68af 663d 5cef 89bd
00000180: 0428 843d ddad aa3c e2b5 8d3c a50e ccbc
00000190: d701 94bd e94c 8bbc 5dd8 763d 339a a83d
000001a0: a807 65bd 5fca 833d 0c50 623d e38f 173d
000001b0: fb10 9c3d 122e 6c3d a3cd 0dbc b47c fbbc
000001c0: 7f2b 223c 3311 8b3c f3b1 3dbc c085 153d
000001d0: d8f6 e43c 8f0c 6d3d e50c 9ebc 5e81 c03d
000001e0: 2706 673d 24cb 313d 30fd ff3c 6224 4f3c
000001f0: 66dd af3d 2034 7d3b ea8c 8dbd 26a8 193d
00000200: 89b7 cabb 37f0 c13d 5492 be3d ef03 e53b
00000210: 9849 643d 334f aa3d cf48 0dbd 9948 8dbd
00000220: 2a1a febc 0ec5 4abd 562c d23d e3e6 86bd
00000230: cbb5 3b3d df00 8dbd 640b 56bd 5bdb 9cbd
00000240: 70b3 55bc 8c20 80bd 480f 753c 21f5 2abc
00000250: 78e8 ad3d 9c69 c03c fb35 903c 2227 17bd
00000260: 269c 83bd dabb 693d c451 963d 570e 13bd
00000270: a9b7 d53d ce16 053d 20f9 4f3b 0c92 85bd
00000280: 3d75 0fbd 04b2 d63d f870 ca3d d16d b33d
00000290: 8986 c9bc eaf5 18bd 4ee5 c23d 1c9a 23bc
000002a0: 29de 0c3d 7fad 90bd 8d15 26bc 286e 36bd
000002b0: 7b5a 77bd f3d0 51bd 7a0c 9d3d e963 323d
000002c0: 10de ed3b 2276 30bd 6dda 3ebc 789d cd3d
000002d0: 4de3 e13d c17b 2abd 0fcb 6e3d 194f cc3d
000002e0: e5a5 743d 50f0 f83d c573 af3d d7d1 d43d
000002f0: af6b aebd 2ae9 23bd 6398 e4bb 2f1b a4bd
00000300: 4dbc 9d3c 2c3d 01bd a553 8abd 04a0 4f3c
00000310: d723 0f3d 0673 89bd 2c39 97bd fa06 d03d
00000320: 7806 7e3d cc94 1ebd 6310 01bc f2c9 9bbd
00000330: 6917 a6bd 36f5 a1bc 36b8 6cbd 047b 923d
00000340: 9140 0b3c 3353 623d d574 983d a918 453d
00000350: 2f17 b3bd abce 09bd 35af 62bd 4fc6 d83c
00000360: 641f f3bc 9219 e8bc 38f3 013d 0c72 423d
00000370: 26a7 9d3c 6b96 71bd 49f2 c03d a16d 38bc
00000380: f85e 86bd 4491 c1bd 62be 13bd 99bb 8c3d
00000390: 56b6 58bd b255 44bd 7b30 593d 888d 143d
000003a0: d983 1f3d fc8a 8d3c 3645 193d 5f33 81bc
000003b0: 226f c7bd b16b 2f3c 1503 233c 8d83 1abd
000003c0: 455f a83c 43ca b13d 558d 9bbd a39b 02bb
000003d0: 6010 1cbc 6433 043d 5871 25bd ec12 a73d
000003e0: b527 92ba 9199 5e3d 612c 973d c64e 013d
000003f0: 2864 dcbc 242f 393d bd3a bc3c 6147 edbc
0.10215409 0.07847557 0.0552386 -0.07320827 -0.067275904 0.03389601 -0.056500573 -0.007973798
-0.04214526 -0.0390241 0.071275495 0.09993474 -0.007601527 0.09016974 0.00039503674 0.059811417
-0.030143559 0.0049776556 0.088670865 -0.06905371 -0.07293239 0.08205978 0.060067397 0.11157941
0.062283657 -0.039171595 -0.03348337 -0.027346961 0.12855545 -0.038358454 0.023709245 -0.07481649
-0.03271877 0.04842073 -0.06430189 0.115585975 0.059488952 0.016912034 0.06903438 -0.0414162
-0.070174515 0.071752734 -0.054063436 0.11118425 0.058594625 0.09555574 0.007074064 0.09816022
-0.04820491 0.11822107 0.034218386 0.03837806 0.048465803 0.004579526 -0.020863147 0.11001073
-0.00780671 -0.038261883 -0.049321726 0.10670849 0.044833295 0.11802033 -0.06014125 0.09013011
-0.024142215 0.0963593 -0.03778968 0.09531548 -0.038033545 0.09293393 0.10336827 -0.020421593
0.046628784 0.018101837 0.0055816183 0.03164364 0.0043602074 -0.00073384534 0.06453095 -0.047942296
-0.07648219 -0.042064253 0.07693779 -0.02890223 0.012491167 0.030163866 0.04806568 0.06208859
-0.02505974 0.02178155 0.084506296 -0.013010694 0.035696432 0.036108848 0.056319624 -0.06735107
0.06452945 0.020834858 0.017298643 -0.024909327 -0.072269134 -0.017004447 0.060264934 0.08232536
-0.055915505 0.064350836 0.05525212 0.037002455 0.07620426 0.057661124 -0.008654985 -0.030699112
0.009898066 0.016975975 -0.011578071 0.036504507 0.027949736 0.057873305 -0.019293258 0.09399675
0.05640235 0.04340662 0.031248659 0.012642952 0.0858715 0.0038635805 -0.06911643 0.037513874
-0.00618643 0.094696455 0.093052536 0.0069889943 0.055734247 0.08315887 -0.034493264 -0.068986125
-0.031018335 -0.049504332 0.10262363 -0.06587007 0.04582767 -0.06884932 -0.052256957 -0.07659026
-0.0130432695 -0.06256208 0.014957257 -0.01043442 0.084916055 0.023487858 0.017603865 -0.036902554
-0.06426267 0.057063915 0.07339814 -0.035902347 0.10435421 0.03249245 0.0031734183 -0.06521997
-0.035023917 0.104831725 0.09884828 0.0876118 -0.024600284 -0.037343897 0.09516393 -0.009985473
0.034391556 -0.07064342 -0.010136974 -0.044538647 -0.060389023 -0.05122466 0.07668395 0.043552313
0.007259138 -0.04308141 -0.011648756 0.100398004 0.11029682 -0.041621927 0.05829912 0.09976024
0.05972852 0.12155211 0.08567003 0.10391586 -0.08516633 -0.040017284 -0.0069761737 -0.08012997
0.019254828 -0.03155248 -0.06754235 0.012672428 0.03494629 -0.06711392 -0.073839515 0.10157581
0.062017888 -0.038716123 -0.007877442 -0.076068774 -0.08109934 -0.019770246 -0.057792865 0.071523696
0.008499281 0.055255126 0.07444159 0.04811922 -0.08744656 -0.03364436 -0.05534287 0.026461748
-0.029678054 -0.028332505 0.031726092 0.047472045 0.019244742 -0.05898134 0.09421212 -0.011256606
-0.065610826 -0.09451535 -0.036070235 0.06871719 -0.052908264 -0.047933288 0.05302475 0.036267787
0.0389441 0.017278187 0.03741952 -0.015771566 -0.09737994 0.010706828 0.009949465 -0.037723113
0.02055324 0.086811565 -0.07595316 -0.0019929192 -0.0095253885 0.032275572 -0.040391296 0.08157906
-0.001115075 0.05434567 0.073815115 0.031569265 -0.026903227 0.045210972 0.022977227 -0.0289647

rnn.bias_hh_l0 f4 [400]
00000000: 3ede ecbb 9877 9bbd c097 beba aae2 5fbd
00000010: 7157 db3d 18ff 21bd 6c2a 66bd e3de 3cbd
00000020: ed93 b5bd e7ef d6bb 1e60 963d 844b 3abd
00000030: 6016 263c 98c5 4b3c cd41 b6bc d5e6 bf3d
00000040: e774 763d ed03 08bd 1de0 2d3c c2a1 00bd
00000050: 8f4f e23d 88e4 403d 8ba2 a2bd b76e 2b3d
00000060: f4ce bc3c fff8 f33d 4c96 55bd 9db3 7d3d
00000070: f35c 733d 1515 36bd e90e a63c 1c9b 82bd
00000080: cef5 da3d 563e fa3c 2596 033d 1efa b43d
00000090: 3144 b23d d190 88bc f4d0 8bbd 802b 90bd
000000a0: 10e1 51b9 f1d8 0c3e b219 6abd 03ab be3d
000000b0: b987 32bd b4ae af3d db47 12bb c561 753d
000000c0: 32a2 3a3d cdb5 f53d 52f2 a83d fd42 b63d
000000d0: d71b 2d3d 5468 f4bc 56e2 e83d e24f 893d
000000e0: 699d 3bbd 7ef0 133e 2b9b 8d3d b001 df3d
000000f0: b22e 0dbd 5d83 ee3d 018a fcbc 31ce 3e3b
00000100: a06c 28bd a39a 233d e32c db3d f668 853d
00000110: 7a47 d83b 48f0 b33d 1051 763c ccd9 d73c
00000120: 4741 6abd b8db a63d 9d25 1ebd 40b0 9bbd
00000130: 2f70 c5bb 9a79 5d3d 44f8 c6bb 4c14 ff3c
00000140: 5c68 b43c a2c2 09bd be99 52bd a758 75bc
00000150: becf b73d b03a 733d 17ef 3f3b ad21 9b3d
00000160: c0ba b23d 08f3 e13c 6c0e e13d bfd5 e63c
00000170: 61d9 c63d 0700 49bd 1f50 4fbd b446 2bbd
00000180: 1a7f 7dbd b099 f53d 1e67 943b defc fd3b
00000190: 7d6b cc3d 8ac2 0c3d 31b4 a33d aa5e e53d
000001a0: eabc e7bc e600 893c 4e1c a53d 5a6f 923d
000001b0: c612 823d 722c 603c 4422 693d a656 8b3d
000001c0: 4c91 95bc d208 913d d913 1a3d 19ab 24bc
000001d0: 2efd 8b3d 2f21 a9bd 5472 8f3d 20ab 9a3d
000001e0: d8b6 a1bd 24d4 8a3d 0edd 2dbd c65f 76bd
000001f0: f893 103d f036 c13d 420f b8bd 0a7e 3ebd
00000200: 983f af3a 9eb0 51bd e4a2 863d 167f c23d
00000210: 0adb a23d 9756 c03d cea4 243d 7202 26bd
00000220: 2641 59bd ad7e 01bd adce 91bc 7d44 bf3d
00000230: 4210 84bd 15d8 00bd e42a e03b 969f 31bd
00000240: 5e10 603d c794 fd3c a0f6 8c3d ea07 c53d
00000250: 8db2 973d b84b 34bd f069 3cbd 4914 183d
00000260: 7de0 8bbc 4f1d bdbd dd3e 743d 285e 303c
00000270: 8297 4dbd 7a5a eb3d 60ef 533c 18a3 ad3d
00000280: 24b5 b9bd b901 063d 15b4 de3d 2c40 6d3b
00000290: 1a29 7b3d b501 e53c 5521 123d 0e8c ba3c
000002a0: 29ee 36ba dc67 7a3c 4e1e 8bbd 6794 9dbd
000002b0: 1dfc c2bd bf7e 8fbd b6c6 9cbd 68c3 86bd
000002c0: 1c80 133d 8f5b 6a3d eb5f bd3c 22f7 4e3d
000002d0: d572 db3c 0a96 8ebd ec99 933d 1473 703d
000002e0: 6c94 8ebd fa7e 81bd 6e3d afbd fd60 a53d
000002f0: c8ed 51bd 3854 ab3d 85a9 ab3d b79e 773c
00000300: c446 913d f956 45bd 6050 39bd c6f1 4cbd
00000310: 25a4 b83d 405c ca3c 6cb9 fbbc 419e 4cbb
00000320: 5aad 9c3b 584f fb3c b54a d7bd 6642 36bd
00000330: 3da5 bf3d 26b0 433c d0c1 95bd 3612 0cbd
00000340: 51aa 6ebd ad14 533d f0b0 72bd 1b45 a0bd
00000350: 3f1c d83c c5bf 5ebd a6e6 ea3c da6c 813d
00000360: 6630 8c3c 255f b83c 5d0f 75bd 6824 d43b
00000370: 532d 21bd 4d02 d3bd 92b0 3e3d 4c4b 08bd
00000380: 157d 22bc c29c 9dbc e302 623d 9464 0a3d
00000390: 9a81 c2bd e2e9 debb b76e a6bc 4479 953d
000003a0: b203 ab3d 1ffd 02bd 1778 64bd 3a95 663d
000003b0: 1785 d4bd 7029 283b 30bf cb3d 8939 b1bc
000003c0: 7b2d 433d 11f3 b3bd b69c 2ebc 8bda 41bd
000003d0: b09e af3d 8ff8 6cbd 7072 9d3d accc b0bd
000003e0: 6017 5ebd 17e7 00bc 367e 8f3d 21e7 4fbd
000003f0: 74ad 363d ab74 993d 7a21 c83c 0947 813d
-0.007228642 -0.0759117 -0.0014541075 -0.054659523 0.107100375 -0.039549917 -0.0561928 -0.046111
-0.08866105 -0.0065593603 0.07342552 -0.045482174 0.010137171 0.012437247 -0.022248173 0.093701996
0.06017008 -0.03320687 0.010612515 -0.031404264 0.11050331 0.047092944 -0.07941159 0.041853633
0.023047902 0.119127266 -0.052145287 0.06193887 0.059414815 -0.0444537 0.020270782 -0.06377241
0.10691415 0.030547302 0.03212561 0.088367686 0.08704413 -0.016670616 -0.06826964 -0.07039547
-0.00020015636 0.13754632 -0.05715341 0.09309962 -0.043586466 0.08578244 -0.0022320661 0.059907693
0.045564838 0.11997566 0.08249344 0.08899496 0.04226288 -0.029834904 0.11371295 0.067046896
-0.045804415 0.14447209 0.069143616 0.10888994 -0.03446836 0.11646149 -0.030827524 0.00291146
-0.041119218 0.039942395 0.10701921 0.0651416 0.0066003175 0.087860644 0.015033975 0.02634897
-0.05719116 0.08147377 -0.03861009 -0.076019764 -0.006025336 0.054071046 -0.006072076 0.031137608
0.022022419 -0.033632882 -0.05141615 -0.01497475 0.089751706 0.05938214 0.0029286796 0.075747825
0.08727026 0.027581707 0.10989079 0.028178094 0.097094305 -0.04907229 -0.05061352 -0.041815475
-0.06188879 0.11992204 0.004528894 0.0077510914 0.09981439 0.034365214 0.07993353 0.11199696
-0.028288323 0.016724061 0.08062039 0.07150145 0.06351237 0.013682472 0.056917444 0.06803636
-0.01825776 0.070817605 0.037616584 -0.0100505585 0.068353996 -0.082582824 0.07004228 0.07552171
-0.07896203 0.06778744 -0.042447142 -0.06014993 0.035297364 0.094343066 -0.08987285 -0.04650692
0.0013370393 -0.051193826 0.06574038 0.09496896 0.07951935 0.09391516 0.040196232 -0.040529676
-0.053040646 -0.031614948 -0.017798746 0.09339235 -0.064484134 -0.031456072 0.0068410505 -0.043365084
0.05470311 0.030954732 0.068829775 0.0962065 0.07407103 -0.044017524 -0.045999467 0.03712872
-0.017074818 -0.09234106 0.059630264 0.010764636 -0.050193317 0.114918664 0.012935489 0.08478373
-0.09067753 0.032716487 0.10874192 0.003620158 0.061318494 0.027954916 0.03567632 0.022771861
-0.00069782377 0.015283551 -0.067928895 -0.07694321 -0.09520743 -0.07006597 -0.076550886 -0.065802395
0.036010846 0.057216223 0.023117026 0.050528653 0.026788155 -0.069622114 0.07207093 0.058703497
-0.06961903 -0.06323047 -0.08556639 0.0807514 -0.051252156 0.08365673 0.08381943 0.015113524
0.070935756 -0.048178647 -0.045242667 -0.05003526 0.09015683 0.024702191 -0.030728064 -0.0031222256
0.0047814073 0.030677482 -0.10512296 -0.044496916 0.093576886 0.0119438525 -0.073123574 -0.034197055
-0.058267895 0.05153339 -0.059250772 -0.07825681 0.026380656 -0.054382104 0.028674435 0.0631959
0.017112922 0.022506306 -0.059829105 0.0064740665 -0.039349865 -0.10303173 0.04655511 -0.033274934
-0.009917517 -0.019239787 0.055178534 0.033787325 -0.09497376 -0.0068027833 -0.020316465 0.0729852
0.08350314 -0.031979676 -0.05577859 0.056294657 -0.103769474 0.0025659464 0.099485755 -0.02163388
0.047650795 -0.087865956 -0.01065748 -0.04732756 0.08575189 -0.05785423 0.07687843 -0.08632788
-0.05422151 -0.007867596 0.07006495 -0.05075753 0.04459901 0.07492956 0.024430025 0.06312377

fc.weight f4 [5, 100]
00000000: 0fa0 0d3d 5837 3abc 4c96 ca3d 2eb6 653b
00000010: a37f e73d b575 e83c eeaa 2a3d 7673 4bbc
00000020: ab29 263d 5d05 873d fb4b ecbd dbd3 dbbd
00000030: 05ad 563d c718 8b3c a73e 7b3a fa6f 24bd
00000040: 17a3 1bbd 1f66 c53d 33ad 663d 467f d5bc
00000050: cb4c 4a3d 9c6a f33d b002 1f3c 1d33 863d
00000060: 45f4 01bd f5cc 9e3d d374 69bd b816 cf3d
00000070: 59a8 a0bd 48e3 10bc b6df 5d3d dedf c73c
00000080: 80c4 f0bd c98d 25bc e763 d73d 9dbb 3fbd
00000090: a0e5 51bc af17 3e3d 1e86 0abd b914 47bd
000000a0: 3d17 42bc e5b1 d9bd 8aab 153c 4ad9 ff3d
000000b0: 6d9b 803b 7174 80bd c7e4 e33d 4f0c e1bd
000000c0: 89c7 46bd f3b2 993d 5573 163d e22c 79bd
000000d0: dbd2 883d 1ca7 5bbd d049 8fbc 6586 78bd
000000e0: 9c61 ec3d 0424 973b 4d44 803d 0124 fdbd
000000f0: 2a24 ab3c 4d80 2cbc 806b a3bd d0e7 bd3d
00000100: 98fb 5bbc b322 a0bd 4aea ae3d 6ba8 a03c
00000110: 5732 5e3d 6c4b e0bc 5900 4dbc 4024 73bd
00000120: b7d0 71bc 51d4 c2bc f5f2 6ebd 1de7 f0bd
00000130: 662d 4dbc 40b9 c3bc 02db 983d e25e 97bd
00000140: 3bf5 6a3c 1cec 08be 56ca d2bc d145 86bd
00000150: 5141 883d 582e aebc e828 bbbd acf4 4dbd
00000160: b3a0 96bd 32c0 9a3d 1eea 833c c24c f13b
00000170: 9b32 57bd 04af 873c d232 203d 11c0 043e
00000180: b7cc b6bd 8a6f 9c3c a3e0 b93d 3b7d f6bc
00000190: e1a9 1d3d cec1 9f3d c6a4 473c 208f e13d
000001a0: 76b1 e43d 6b1f 883d b6d2 cc3d 4797 e4bc
000001b0: e52d 36bd f4b8 963d 764f d0bd bede debd
000001c0: 1d41 ca3d 8b2f 9b3d 0627 d53d 6e87 0dbd
000001d0: 3560 c4bd 87cb 4f3d 2f9f a13d 1454 b8bd
000001e0: c747 0cbd f704 ed3d 9b51 6e3d 6e09 babb
000001f0: 286d e53b 4343 3bbc ad97 a93d 27e8 493c
00000200: 12bc a33c d680 88bd 00e0 c2bd 5cc6 d93d
00000210: 5eb4 9e3d a933 4bbd a97f 94bd b0a9 f43d
00000220: c73a 173d b861 f33c 8cf4 343d a433 113d
00000230: a048 cb3d b777 22bd 58c0 623d c629 0bbd
00000240: 7332 2abd 2c99 2d3d e178 3bbc b409 14bc
00000250: ef4f 373b d2d8 c6bd 198e b7bd 8ace efbd
00000260: 13a1 ddbd d033 62bd 2512 f7bd 3b96 47bc
00000270: 3830 233b e4d4 c33d 694d 7d3c 4d0f aabd
00000280: 0a34 0c3d e4c0 0fbe 7689 c2bd feff 30bd
00000290: 07d6 243d f6bb 2b3d 698e 333d 97e6 d3b9
000002a0: 1af7 4a3d 1e98 ab3d a94d 50bd 1130 d53c
000002b0: 96e8 b4bd f09b 76bd 6b59 c0bc 46e9 92bc
000002c0: 9a5f 223d 19d1 4dbd 3d86 413c 63ff 2fbd
000002d0: a51b 73bd 616f 583d 0039 ef3b f981 aabd
000002e0: 491f cbbc 501b 633c 818f e5bd 2c19 c2bc
000002f0: 5182 97bd 2084 653d ffae 383d e4e3 efbd
00000300: e292 e7bd c21c 1abd 9695 c93d b899 273c
00000310: 2c7d c2bd a169 573c a8fd 673d b646 1b3d
00000320: 1fe1 0ebd d6c8 9a3d 4577 de3c e7f5 cb3d
00000330: 5e63 133c 448a c23d a2da ed3c e681 07be
00000340: e2b6 d2bc 12a0 c33d 287c b0bd 245f 4e3c
00000350: 63b1 853d e542 94bd ea3b 883d c731 f73c
00000360: c53a a2bd 3035 20bd c977 ab3d 62fe d6bc
00000370: bf3a 8a3c ac7b 993d d394 7b3d 23d5 2e3d
00000380: 9ab9 b5bd 7e1a 6c3d bbd7 de3d 8d44 b23c
00000390: 514f 8cbc fb1d d9bd 8b3e 4fbc 03da 853c
000003a0: a2bb b7bd 8e13 5f3d 60fe 913c ba86 afbb
000003b0: 1d6a f13b 42f9 f93d 7c52 65bd c3a7 b5bc
000003c0: 5b8c f4bc 160f a4bd 62c1 fdbd 4e0e 3fbd
000003d0: 346d e63d 0103 30bd cbb4 07bb b79d 8a3d
000003e0: 5899 ddbd d06a b3bd ecdc 8fbd 29cc 923d
000003f0: b1a5 cdbd 8ac3 123d a41b 043d cbfa 5abd
0.034576472 -0.011365734 0.09891948 0.0035051215 0.11303642 0.02837644 0.041666918 -0.012417665
0.04056708 0.0659282 -0.115379296 -0.107337676 0.052411098 0.016979588 0.0009584226 -0.04014585
-0.03799733 0.09638619 0.05631752 -0.026061665 0.04938964 0.118855685 0.009705231 0.06552718
-0.031727094 0.07753936 -0.056996178 0.10111755 -0.0784461 -0.008843251 0.054168426 0.02439874
-0.117562294 -0.010104605 0.10517102 -0.04680978 -0.0128110945 0.046409305 -0.03381931 -0.048603747
-0.011846361 -0.10629634 0.009135136 0.124926165 0.003924778 -0.062722094 0.1112762 -0.10988676
-0.048530135 0.07504835 0.036731083 -0.06083382 0.066808425 -0.053626165 -0.017491251 -0.060675044
0.11542055 0.0046124477 0.06263027 -0.12360383 0.020891268 -0.010528636 -0.079794884 0.0927273
-0.013426684 -0.07819118 0.08540781 0.019611558 0.054247227 -0.027379714 -0.01251229 -0.059360743
-0.014759234 -0.023782881 -0.05833717 -0.11762831 -0.012523031 -0.023892045 0.074636474 -0.07391144
0.014340694 -0.13371319 -0.025731247 -0.06556285 0.06653083 -0.021262333 -0.091386616 -0.050282165
-0.0735487 0.075561896 0.016102847 0.0073638866 -0.052538496 0.016562946 0.039110966 0.12963893
-0.08925765 0.019096155 0.09076049 -0.030089011 0.038492087 0.07800637 0.012185281 0.11013627
0.111666605 0.066466175 0.100011274 -0.027904166 -0.044477362 0.07359496 -0.10171406 -0.108823285
0.098757006 0.075774275 0.10407834 -0.034552984 -0.095886625 0.05073121 0.0789169 -0.09000412
-0.03424814 0.115732126 0.058183294 -0.0056773936 0.007001538 -0.011429611 0.08280883 0.012323416
0.01998714 -0.066651985 -0.09515381 0.10633537 0.07749246 -0.049609814 -0.07250912 0.11946428
0.03692129 0.029709682 0.04417853 0.03544964 0.099259615 -0.03966495 0.055359215 -0.033975385
-0.04155202 0.042382404 -0.011442394 -0.0090355165 0.0027971228 -0.09709324 -0.0896265 -0.11709316
-0.10821738 -0.055225194 -0.12064008 -0.012181814 0.0024900567 0.0956209 0.015460351 -0.083037
0.034229316 -0.14038426 -0.09498875 -0.043212883 0.040243175 0.0419273 0.043836985 -0.0004041686
0.04955206 0.083786234 -0.050855312 0.026023896 -0.08833425 -0.060207307 -0.023480138 -0.017933499
0.039641954 -0.05024824 0.01181179 -0.042968165 -0.059352536 0.052840594 0.007300496 -0.083255716
-0.024795191 0.013861492 -0.11209012 -0.023693644 -0.07397903 0.056034207 0.045088764 -0.117133886
-0.113073125 -0.03762508 0.098429844 0.0102295205 -0.09496531 0.0131477425 0.05663839 0.037909232
-0.03488266 0.07557838 0.027156482 0.099590115 0.008995859 0.09499028 0.029034916 -0.13233146
-0.025721971 0.09552015 -0.08617431 0.0125959255 0.065279745 -0.072393216 0.06652053 0.030175103
-0.07921366 -0.039113224 0.083724566 -0.026244346 0.016873715 0.07494292 0.061421227 0.04268373
-0.08873291 0.057642452 0.10880991 0.021761203 -0.017127665 -0.106014214 -0.012649189 0.016339308
-0.08971335 0.05446201 0.01782149 -0.005356637 0.007367386 0.12205745 -0.055986866 -0.022174722
-0.029852083 -0.0801069 -0.123904005 -0.0466445 0.112512976 -0.042971615 -0.0020707126 0.06768363
-0.108202636 -0.08760607 -0.070245594 0.07167847 -0.10041369 0.03583101 0.032252923 -0.05346183

fc.bias f4 [5]
00000000: bc0a bd3c fb07 613c b268 81bd c364 adbd
00000010: e8e6 8e3d
0.023076408 0.013734813 -0.06318797 -0.084664844 0.069776356
