checkpoints/lstm_with_all_output.pt (torch, 11183 bytes, 6 tensors)

rnn.weight_ih_l0 f4 [80, 5]
-0.34683946 -0.053182032 -0.20905635 -0.18378827 0.17225976 -0.20399885 0.006908971 -0.12843232
0.04765422 -0.22235116 0.3084108 -0.024485234 0.3087107 0.14082278 -0.093034744 -0.14289536
0.16788208 -0.10154681 -0.12390729 -0.07591043 -0.1883044 0.053925887 0.08536748 -0.29597515
0.03265363 -0.14404942 -0.0046051834 -0.2083551 -0.2864015 0.07060539 -0.12426713 0.19223319
-0.19989328 0.15656075 -0.13447602 -0.16050239 0.009551884 0.0063443384 0.027358089 -0.07226382
0.03942144 0.058914065 -0.11505939 -0.07725327 -0.17713751 0.13388479 -0.042751376 -0.039507966
-0.15227866 0.07296019 0.15752618 0.079315215 -0.06745753 -0.12114631 0.05567424 0.051356386
0.08541194 0.036100563 -0.13712926 0.22913773 0.14909218 0.09740032 -0.2248075 0.07004884
0.15691705 0.11125762 -0.13389069 0.10269345 -0.120239206 -0.1933895 0.20193139 0.13049528
0.012369367 0.1103617 0.03781539 -0.013664045 0.17583665 0.062807225 0.10718514 -0.062672675
-0.081433766 0.133875 -0.20141909 0.05390356 0.08744409 -0.13633502 0.129093 0.095583126
0.17534445 0.13503155 0.034918427 -0.036051948 0.13439146 -0.03239382 -0.22764507 0.12999709
0.11767449 -0.037083838 0.19729654 0.2104278 -0.34934023 -0.2816753 -0.14350379 0.0015384445
-0.0061227754 0.15604892 0.18647018 0.01270069 -0.1712797 0.04425839 0.3314445 -0.045349438
0.20662199 0.2680237 0.13363495 0.11548391 0.10904367 -0.27714399 -0.06796588 -0.05425644
-0.05014051 -0.0808846 -0.10223625 -0.11115991 0.16497867 -0.21480314 0.025127796 -0.3008644
-0.009937331 0.046730943 -0.2444633 -0.057620436 -0.22795817 0.0029001033 -0.17020197 0.16175793
-0.0876771 -0.20350055 0.14551522 0.15172856 -0.03491244 0.1782477 -0.2232536 -0.20793656
0.06993643 -0.15183422 -0.07684597 -0.066504866 0.17135826 0.048103526 0.061558213 -0.11741365
-0.07996296 -0.05936766 0.13442919 0.21475165 0.18849275 -0.08136074 -0.03945392 0.20536596
-0.22105478 -0.076684214 0.14264752 -0.24459474 -0.11504855 -0.103309005 -0.17409332 0.19792826
0.0008154053 0.19028535 0.109293364 0.13575265 0.18109617 -0.07406325 -0.04172742 0.086379886
0.25088137 0.04000521 -0.0020216212 -0.086029895 -0.24985093 0.10538114 -0.15827379 -0.005414902
0.17408465 -0.017006302 0.10079508 -0.13950142 0.09708287 0.0316204 -0.16819364 -0.04688455
0.1020014 -0.18536599 -0.16576812 0.17660788 0.21740496 0.008119577 -0.11373305 0.14794102
-0.29853708 0.010001331 0.0005771984 -0.16274577 0.13128346 -0.24543408 -0.051677097 -0.01061017
0.11564258 -0.23310223 -0.05201535 -0.12997773 0.24237989 0.12149873 -0.06295894 -0.04354951
0.005732685 0.22406586 0.06049414 -0.20034063 0.07826052 0.025491262 -0.22374843 -0.15244336
0.13487443 0.02208182 0.20402744 0.1209418 -0.15483789 0.10732445 -0.2034884 0.12395916
0.12192358 -0.014026616 -0.048717216 0.30302584 -0.16470362 0.22908105 0.15988982 -0.007486405
-0.19139239 0.012653338 0.043006763 0.026316857 0.18978362 -0.30512804 0.02872441 -0.0015841913
0.044252276 0.3899332 0.3155734 0.0809756 0.026801815 0.25915238 0.074329086 -0.21018821
00000000: f194 b1be 67d5 59bd de12 56be fe32 3cbe
00000010: dd64 303e 13e5 50be a664 e23b c383 03be
00000020: 1231 433d 06b0 63be 05e8 9d3e 4295 c8bc
00000030: 540f 9e3e d933 103e 0089 bebd 2953 12be
00000040: 48e9 2b3e c6f7 cfbd 1bc3 fdbd ed76 9bbd
00000050: ded2 40be 64e1 5c3d 25d5 ae3d 0e8a 97be
00000060: d0bf 053d b181 13be 14e7 96bb 0a5b 55be
00000070: 38a3 92be 8f99 903d c47f febd c7d8 443e
00000080: d3b0 4cbe 7651 203e 15b4 09be bd5a 24be
00000090: 817f 1c3c 2be4 cf3b 121e e03c 0eff 93bd
000000a0: 6078 213d e04f 713d 42a4 ebbd f636 9ebd
000000b0: 8963 35be 1819 093e 111c 2fbd 1bd3 21bd
000000c0: f0ee 1bbe 276c 953d 8b4e 213e 0470 a23d
000000d0: 2c27 8abd 8e1b f8bd ac0a 643d 135b 523d
000000e0: 75ec ae3d 2fde 133d 9d6b 0cbe 15a3 6a3e
000000f0: 9fab 183e d279 c73d f033 66be c475 8f3d
00000100: ddae 203e 09db e33d a41a 09be f250 d23d
00000110: f93f f6bd e607 46be 1ac7 4e3e 8ea0 053e
00000120: e3a8 4a3c 5105 e23d 4fe4 1a3d 29df 5fbc
00000130: 860e 343e 13a1 803d e283 db3d 885a 80bd
00000140: bfc6 a6bd 8716 093e ce40 4ebe fbc9 5c3d
00000150: e315 b33d 689b 0bbe f530 043e 16c1 c33d
00000160: 7f8d 333e b645 0a3e a006 0f3d 35ab 13bd
00000170: ea9d 093e 62af 04bd ca1b 69be f51d 053e
00000180: 53ff f03d 39e5 17bd 1b08 4a3e 637a 573e
00000190: b9dc b2be bf37 90be a8f2 12be a2a5 c93a
000001a0: 90a1 c8bb 4acb 1f3e 0af2 3e3e 8e16 503c
000001b0: f263 2fbe 4948 353d 18b3 a93e 55c0 39bd
000001c0: b794 533e 673a 893e 9ad7 083e d482 ec3d
000001d0: 4a52 df3d d1e5 8dbe b231 8bbd 003c 5ebd
000001e0: 2360 4dbd d3a6 a5bd 3d61 d1bd cfa7 e3bd
000001f0: 2bf0 283e 5bf5 5bbe cfd8 cd3c e60a 9abe
00000200: 30d0 22bc f268 3f3d 9654 7abe 6803 6cbd
00000210: de6d 69be a90f 3e3b 6d49 2ebe dfa3 253e
00000220: 0d90 b3bd 7362 50be f101 153e bb5e 1b3e
00000230: 5900 0fbd 9186 363e 979c 64be 52ed 54be
00000240: d53a 8f3d 6e7a 1bbe 6b61 9dbd b433 88bd
00000250: 8a78 2f3e 3408 453d 7724 7c3d 9176 f0bd
00000260: 9fc3 a3bd 812b 73bd cea7 093e dbe7 5b3e
00000270: 3e04 413e 76a0 a6bd 6f9a 21bd 744b 523e
00000280: 2f5c 62be 9d0c 9dbd 3112 123e 0b77 7abe
00000290: 939e ebbd ac93 d3bd 8545 32be b5ad 4a3e
000002a0: ecc0 553a 2ada 423e 33d5 df3d be02 0b3e
000002b0: 4671 393e 79ae 97bd 5fea 2abd f0e7 b03d
000002c0: 8673 803e 81dc 233d 2d7d 04bb 7130 b0bd
000002d0: ecd8 7fbe 11d2 d73d 8612 22be 7e6f b1bb
000002e0: 3f43 323e cd50 8bbc a76d ce3d 76d9 0ebe
000002f0: 62d3 c63d 6484 013d f43a 2cbe 040a 40bd
00000300: 1ce6 d03d 95d0 3dbe 1ebf 29be b2d8 343e
00000310: 689f 5e3e f907 053c e0ec e8bd da7d 173e
00000320: dad9 98be 9fdc 233c 214f 173a d4a6 26be
00000330: 2c6f 063e 1253 7bbe 5dab 53bd 47d6 2dbc
00000340: 04d6 ec3d 5ab2 6ebe 0c0e 55bd e218 05be
00000350: 6f32 783e 53d4 f83d 9ef0 80bd f960 32bd
00000360: 3fd9 bb3b 8571 653e b4c8 773d 1826 4dbe
00000370: 0d47 a03d 0dd3 d03c 4f1e 65be 1d1a 1cbe
00000380: 861c 0a3e efe4 b43c 92ec 503e 56b0 f73d
00000390: d38d 1ebe eccc db3d 435f 50be 4dde fd3d
000003a0: 12b3 f93d e4cf 65bc b48b 47bd 3426 9b3e
000003b0: 11a8 28be 3994 6a3e 28ba 233e 8450 f5bb
000003c0: 5efc 43be f24f 4f3c dc27 303d 7396 d73c
000003d0: a356 423e be39 9cbe 744f eb3c a4a4 cfba
000003e0: e041 353d 53a5 c73e d692 a13e 89d6 a53d
000003f0: 7b8f db3c 9faf 843e d939 983d 943b 57be

rnn.weight_hh_l0 f4 [80, 20]
-0.09069784 -0.0055920226 -0.071555026 0.16233929 -0.08775504 -0.054976616 0.25719708 0.100153334
0.096606985 -0.13663678 0.0058832103 0.08552809 -0.07778288 -0.154498 0.23326881 0.038526442
0.17495252 0.14954795 0.2012046 -0.064926185 0.2972554 -0.117044166 0.15841573 -0.048454594
0.14008632 -0.0879872 0.29896075 -0.2200903 -0.14804068 0.06660348 0.09731743 -0.0383045
0.018868573 0.014925286 -0.10983662 0.019109031 0.10527589 0.25037152 -0.024554513 0.24502112
0.38138255 0.14188275 0.2700375 -0.26626128 -0.121934496 -0.28060615 0.2120639 -0.15548302
0.29523116 0.15385985 -0.26759994 -0.022275595 0.051842365 0.16354175 -0.21235572 -0.042609595
-0.07776766 0.32825094 -0.019154413 0.175285 -0.07538158 -0.19860019 -0.15599251 0.047023613
0.12354602 0.0013013573 0.16661382 0.09522 -0.24524456 -0.011721077 0.15598597 0.036773678
0.07306691 -0.1184889 0.14199485 -0.03531929 0.051330816 -0.14090402 0.074224934 -0.10781973
0.09896656 -0.116413645 0.20630671 -0.17854168 0.053507145 -0.06536015 0.061472807 0.071654454
0.0132211745 0.33037892 -0.237718 0.33420327 -0.26400676 0.16906989 0.24367204 0.028468145
0.28276864 0.20533076 -0.070250824 0.2703208 0.1016173 0.13515903 0.40663266 -0.06399544
-0.23927149 0.014841518 0.173238 -0.11297623 -0.16033547 -0.15637873 -0.01056245 0.13384739
-0.23595984 -0.108899735 0.04382888 0.02600193 0.09762565 -0.02721434 -0.055814635 0.037523117
0.22653216 0.13714945 0.10383712 -0.15817884 0.18022898 0.031026877 -0.041881517 0.2184868
0.10644262 0.017060205 0.12390323 -0.060472194 -0.14484303 -0.10902581 0.13728237 0.08396931
0.05196279 0.17509045 0.10890104 0.020809583 0.035107885 0.13043623 0.36047298 -0.03149647
-0.012925078 -0.2813959 0.21699867 -0.046984315 -0.2626906 -0.10754292 0.114460066 -0.029223079
0.00048216933 -0.22463146 -0.007591706 0.15443492 0.04396445 -0.09029515 0.02248371 0.10600892
0.12176896 0.29937583 -0.0044934475 -0.23297083 0.052298266 -0.12047597 0.0013643362 -0.13700816
0.25163013 -0.18830009 0.018210333 -0.18183497 0.13068679 0.11922398 -0.19939613 -0.058112595
0.050485037 -0.13135469 0.18503718 -0.15066 -0.10776494 -0.20883338 -0.025433931 0.023984866
0.15941991 0.08236604 -0.11098161 0.1036597 -0.18912672 0.1992021 -0.01087853 0.12536405
0.08983487 0.03702886 -0.068485536 -0.17405568 0.03019812 0.043046225 0.2571484 -0.08196031
0.104449466 0.12232064 0.48212206 0.02587355 -0.13464405 -0.31444496 0.022225088 0.038117245
-0.058695648 0.15043204 0.16676919 -0.015425209 -0.08600114 -0.19882244 0.2179906 0.036357876
-0.10915401 0.06393765 0.21907498 0.04471994 0.14251214 -0.22580895 0.645877 -0.030513484
-0.012260582 -0.24822477 0.020061718 -0.18552387 0.003005959 0.07039476 -0.05528949 -0.009081377
0.1754698 0.2132254 -0.182476 0.2779986 0.20683411 -0.36837566 0.095082365 -0.1717749
0.14938018 0.12536083 -0.06924164 -0.0880937 0.03695923 0.13924776 0.19881378 0.012183083
0.044140123 -0.069886945 -0.10256849 0.062363423 0.06681013 0.061776433 -0.15452336 0.018614914
00000000: cabf b9bd 493d b7bb 718b 92bd 453c 263e
00000010: eab8 b3bd 292f 61bd 56af 833e 311d cd3d
00000020: e2d9 c53d 83ea 0bbe f2c7 c03b 5a29 af3d
00000030: a14c 9fbd b934 1ebe 05de 6e3e e7cd 1d3d
00000040: c126 333e 1923 193e 9408 4e3e 05f8 84bd
00000050: dc31 983e dab4 efbd bc37 223e 5378 46bd
00000060: ca72 0f3e a232 b4bd 6211 993e 5a5f 61be
00000070: fa97 17be 6867 883d 5c4e c73d 2ee5 1cbd
00000080: 4492 9a3c 3089 743c 06f2 e0bd 8b8a 9c3c
00000090: e39a d73d b230 803e 8c26 c9bc d1e6 7a3e
000000a0: 9344 c33e b649 113e 5b42 8a3e 6653 88be
000000b0: cbb8 f9bd 9cab 8fbe 4727 593e f136 1fbe
000000c0: 8a28 973e 708d 1d3e dc02 89be 4f7b b6bc
000000d0: a958 543d 7d77 273e c773 59be 6687 2ebd
000000e0: a744 9fbd 8210 a83e b7e9 9cbc e97d 333e
000000f0: a861 9abd d95d 4bbe 80bc 1fbe d59b 403d
00000100: b205 fd3d 4e92 aa3a d09c 2a3e b402 c33d
00000110: 6421 7bbe c309 40bc c9ba 1f3e ff9f 163d
00000120: 1ba4 953d 4faa f2bd 1967 113e f6aa 10bd
00000130: 4340 523d 2549 10be 3e03 983d 97d0 dcbd
00000140: fbae ca3d 476a eebd 1142 533e a1d3 36be
00000150: 4f2a 5b3d 8bdb 85bd e9ca 7b3d 92bf 923d
00000160: a09d 583c 6d27 a93e 596c 73be b11c ab3e
00000170: e52b 87be a820 2d3e 2a85 793e 0736 e93c
00000180: 0dc7 903e 3a42 523e aadf 8fbd 7d67 8a3e
00000190: bb1c d03d 2167 0a3e 2832 d03e 0b10 83bd
000001a0: 9603 75be d729 733c 4d65 313e 1560 e7bd
000001b0: fb2e 24be bf21 20be 200e 2dbc 4a0f 093e
000001c0: 759f 71be d306 dfbd e985 333d 0002 d53c
000001d0: f5ef c73d 9cf0 debc e39d 64bd d7b1 193d
000001e0: 0cf8 673e e870 0c3e 8ea8 d43d a2f9 21be
000001f0: f28d 383e 142c fe3c f48b 2bbd 01bb 5f3e
00000200: 97fe d93d d8c1 8b3c fac0 fd3d b1b1 77bd
00000210: bb51 14be ed48 dfbd c093 0c3e 1af8 ab3d
00000220: efd6 543d e94a 333e 8207 df3d dc78 aa3c
00000230: 49cd 0f3d 1391 053e ea8f b83e 7102 01bd
00000240: b5c3 53bc 2013 90be e634 5e3e a072 40bd
00000250: 627f 86be 763f dcbd 0a6a ea3d 3d65 efbc
00000260: accb fc39 ca05 66be d8c3 f8bb 3024 1e3e
00000270: 1114 343d aaec b8bd c22f b83c 341b d93d
00000280: 0162 f93d ca47 993e c53d 93bb e88f 6ebe
00000290: b536 563d 1bbc f6bd 87d3 b23a de4b 0cbe
000002a0: aad5 803e bdd1 40be d62d 953c f232 3abe
000002b0: c2d2 053e b42b f43d 802e 4cbe 7907 6ebd
000002c0: 66c9 4e3d d881 06be 637a 3d3e 9d46 1abe
000002d0: ddb3 dcbd 6bd8 55be d25a d0bc e97b c43c
000002e0: f93e 233e 87af a83d 544a e3bd 894b d43d
000002f0: 6faa 41be a3fb 4b3e dd3b 32bc 6f5f 003e
00000300: 58fb b73d 93ab 173d 2542 8cbd a73b 32be
00000310: 0c62 f73c 3d51 303d f5a8 833e cfda a7bd
00000320: 9ae9 d53d 3e83 fa3d b4d8 f63e c4f4 d33c
00000330: 21e0 09be eefe a0be 6311 b63c d420 1c3d
00000340: d96a 70bd db0a 1a3e 8bc5 2a3e 04ba 7cbc
00000350: 5e21 b0bd 1c98 4bbe ee38 5f3e ffeb 143d
00000360: 238c dfbd bef1 823d 3155 603e 412c 373d
00000370: b4ee 113e 763a 67be 3258 253f 6af7 f9bc
00000380: 9ce0 48bc a22e 7ebe 7958 a43c f8f9 3dbe
00000390: a0ff 443b 212b 903d 3b77 62bd 0eca 14bc
000003a0: 5bae 333e c257 5a3e fdda 3abe d555 8e3e
000003b0: 52cc 533e bc9b bcbe 8bba c23d c2e5 2fbe
000003c0: 1ef7 183e 975e 003e 90ce 8dbd 786a b4bd
000003d0: 9062 173d f796 0e3e d795 4b3e 8e9b 473c
000003e0: 46cc 343d e320 8fbd 6e0f d2bd ca70 7f3d
000003f0: c0d3 883d 4909 7d3d 5f3b 1ebe 4e7e 983c

rnn.bias_ih_l0 f4 [80]
0.20258951 0.31604418 0.06666448 -0.06935306 0.115854755 0.25549108 0.17036535 0.25855845
0.14662515 -0.010557135 0.19156918 0.45166883 0.2697805 0.27486217 0.16923527 0.05324099
0.18959856 -0.07126197 -0.15599333 0.8929236 0.067035004 0.07379867 0.26813063 0.07571784
0.08844037 0.12420601 -0.040728454 0.08682254 -0.020333854 0.17455481 -0.07414885 -0.02993002
0.2249459 0.03253091 0.15100677 0.21977839 0.2597334 0.15649831 0.09786307 -0.15990366
0.03748782 0.029516697 0.27409226 -0.149641 -0.0878992 -0.31297377 0.1475858 -0.045652635
-0.14270963 0.27484894 0.16653354 0.25309575 0.037455138 -0.09254247 -0.045100547 -0.10676977
0.019943317 -0.11712449 -0.13885766 -0.10377645 -0.14136593 0.36419237 0.16809563 0.2582243
0.01951525 -0.04819998 -0.013310672 0.024723677 0.016107967 0.17246108 0.4470296 0.35830602
-0.010895973 0.4946696 0.3407567 0.10820915 0.20300849 0.40028012 0.30523968 1.1313723
00000000: a073 4f3e 8bd0 a13e 6387 883d fa08 8ebd
00000010: 4245 ed3d bacf 823e 4174 2e3e c661 843e
00000020: e724 163e d5f7 2cbc b62a 443e 2341 e73e
00000030: ab20 8a3e bcba 8c3e 034c 2d3e 3913 5a3d
00000040: 2026 423e ccf1 91bd b7bc 1fbe a496 643f
00000050: a649 893d c223 973d 6b48 893e f411 9b3d
00000060: 3a20 b53d b85f fe3d e1d2 26bd 04d0 b13d
00000070: 2f93 a6bc 7fbe 323e 5adb 97bd cd2f f5bc
00000080: 3858 663e 223f 053d 85a1 1a3e 960d 613e
00000090: c7fb 843e 1841 203e 6f6c c83d c9bd 23be
000000a0: d48c 193d 00cd f13c d255 8c3e 7e3b 19be
000000b0: 7f04 b4bd 193e a0be bb20 173e 42fe 3abd
000000c0: 7922 12be 00b9 8c3e c587 2a3e c495 813e
000000d0: 8f6a 193d e886 bdbd 5abb 38bd 1caa dabd
000000e0: 2b60 a33c f7de efbd b430 0ebe bf88 d4bd
000000f0: 3bc2 10be 6c77 ba3e 4321 2c3e fa35 843e
00000100: 72de 9f3c 586d 45bd 0115 5abc 4f89 ca3c
00000110: dbf4 833c a399 303e 10e1 e43e e373 b73e
00000120: 0685 32bc 5545 fd3e aa77 ae3e c29c dd3d
00000130: 75e1 4f3e 84f1 cc3e 6048 9c3e cfd0 903f

rnn.bias_hh_l0 f4 [80]
-0.04781882 0.050775405 -0.15321232 0.22731693 -0.06406923 -0.10717077 0.09734531 0.03355371
0.29997104 -0.08424134 0.0859044 0.19004524 -0.008643692 0.54503876 0.16293617 0.2087585
0.18869925 0.012005815 0.17358527 0.78300655 0.1684685 0.063365996 0.22487763 0.24351048
0.27210033 0.113976315 0.16489322 0.03132982 0.012505684 -0.1587138 0.14688714 -0.08239384
-0.017223725 -0.014922085 0.118880995 -0.1768888 -0.09070595 0.22785954 0.21585461 0.11956597
0.12852079 -0.05310116 0.21100408 0.04930746 0.13865449 -0.14361961 -0.012734273 -0.08937779
-0.0013654735 0.232881 -0.10430881 -0.07492272 0.09381096 -0.23502779 -0.038297575 0.14741544
0.23860537 0.06738062 0.20403959 0.06626764 -0.07288134 0.32090166 0.4128853 0.09065029
0.05457651 0.084721774 -0.24858741 0.43077642 -0.051895056 0.16818072 0.29908746 0.4469418
0.34889233 0.4158895 0.10513705 0.30929852 0.02340179 0.12468196 -0.111969516 1.0877489
00000000: abdd 43bd dff9 4f3d b1e3 1cbe c5c5 683e
00000010: ba36 83bd 597c dbbd fa5c c73d 9d6f 093d
00000020: ce95 993e b986 acbd a5ee af3d 389b 423e
00000030: 469e 0dbc a987 0b3f bdd8 263e cac4 553e
00000040: 603a 413e 0ab4 443c 56c0 313e 1e73 483f
00000050: 0283 2c3e 08c6 813d 5246 663e d05a 793e
00000060: bc50 8b3e 6a6c e93d c5d9 283e b353 003d
00000070: a4e4 4c3c df85 22be 9569 163e 1abe a8bd
00000080: c518 8dbc c37b 74bc e177 f33d 5622 35be
00000090: 0bc4 b9bd 0354 693e fe08 5d3e 01df f43d
000000a0: f49a 033e 9a80 59bd 7411 583e 9ff6 493d
000000b0: 71fb 0d3e 0511 13be 6aa3 50bc b40b b7bd
000000c0: b0f9 b2ba 5b78 6e3e db9f d5bd 1571 99bd
000000d0: f61f c03d 20ab 70be ebdd 1cbd 13f4 163e
000000e0: f754 743e dafe 893d c1ef 503e 54b7 873d
000000f0: d042 95bd 394d a43e b465 d33e dca6 b93d
00000100: 9e8b 5f3d 9c82 ad3d b38d 7ebe ba8e dc3e
00000110: e98f 54bd 9137 2c3e fe21 993e 8ed5 e43e
00000120: 04a2 b23e 78ef d43e 1852 d73d 605c 9e3e
00000130: 1cb5 bf3c 4159 ff3d 4650 e5bd 5b3b 8b3f

fc.weight f4 [5, 20]
-0.18300647 -0.06610533 0.13467108 0.29144165 -0.008027961 -0.028508678 -0.16043848 0.36412734
-0.12664102 -0.1475948 0.42555308 -0.017205078 0.34010628 -0.1602382 -0.24526317 -0.2995932
-0.2841307 -0.1047262 0.008487612 -0.36133558 -0.13756509 -0.31874058 0.2776341 0.29388082
-0.0155090075 0.14309992 -0.14390457 0.19913818 -0.0133050475 0.10836935 0.20873386 -0.25566387
0.27415395 -0.24630052 -0.40107083 -0.35341567 -0.010110102 -0.31870535 -0.29888618 -0.35351205
-0.027562978 -0.19650261 0.19534338 0.024351686 -0.020543676 0.1610316 -0.15194017 0.21581584
-0.20458537 -0.1751136 0.20459391 -0.10637689 0.24655199 -0.33880398 -0.29914525 -0.3291302
-0.20933467 -0.11866177 -0.14783129 -0.39765233 -0.007914532 -0.3579877 0.18670009 0.11467124
0.06880069 0.04648101 0.1185516 0.09747481 -0.24756113 -0.16361599 0.39111215 -0.20965444
0.17525515 -0.3710491 -0.31315413 -0.2392318 -0.01215649 -0.35524455 -0.28594288 -0.3429183
0.01626543 -0.50875705 -0.2893541 -0.3200075 0.6991447 -0.065136515 -0.062609404 0.0021300174
0.34044346 0.3770253 0.04165762 0.9030952 0.04913177 -0.044694573 -0.14071575 -0.003918041
0.24805278 0.33866176 -0.04460927 0.21776053
00000000: 0c66 3bbe 3b62 87bd 37e7 093e d737 953e
00000010: b587 03bc 088b e9bc fc49 24be e66e ba3e
00000020: 2fae 01be 1723 17be 18e2 d93e aaf1 8cbc
00000030: 6922 ae3e 7c15 24be 4526 7bbe 4864 99be
00000040: 9479 91be b17a d6bd a00f 0b3c fa00 b9be
00000050: dddd 0cbe f731 a3be 0f26 8e3e 8c77 963e
00000060: 7e19 7ebc c988 123e b85b 13be e1ea 4b3e
00000070: 6afd 59bc c0f0 dd3d 54be 553e 60e6 82be
00000080: e85d 8c3e 3436 7cbe 2859 cdbe e6f2 b4be
00000090: d7a4 25bc 592d a3be 9c07 99be 88ff b4be
000000a0: c1cb e1bc fb37 49be 1808 483e 307d c73c
000000b0: 364b a8bc 78e5 243e 3496 1bbe d4fe 5c3e
000000c0: d47e 51be fb50 33be 1181 513e 20dc d9bd
000000d0: 2078 7c3e b777 adbe 9129 99be c183 a8be
000000e0: d45b 56be f104 f3bd 1661 17be 1699 cbbe
000000f0: f4ab 01bc 2a4a b7be 4f2e 3f3e c1d8 ea3d
00000100: 60e7 8c3d df62 3e3d 2ecb f23d e0a0 c73d
00000110: aa80 7dbe f38a 27be da3f c83e a7af 56be
00000120: 1676 333e 26fa bdbe bd55 a0be 2ef9 74be
00000130: 042c 47bc 9de2 b5be 1b67 92be fd92 afbe
00000140: 143f 853c e73d 02bf 3826 94be 06d8 a3be
00000150: 26fb 323f 4b66 85bd 5c39 80bd c397 0b3b
00000160: 9b4e ae3e 7609 c13e 2ea1 2a3d 3f31 673f
00000170: 653e 493d a811 37bd ca17 10be e962 80bb
00000180: 8c01 7e3e 1365 ad3e 36b8 36bd 9efc 5e3e

fc.bias f4 [5]
0.20071907 0.056169104 0.14399026 -0.02736512 -0.10827874
00000000: 4d89 4d3e 9311 663d 2f72 133e d12c e0bc
00000010: 3ec1 ddbd
