checkpoints/lstm_with_h.pt (torch, 175280 bytes, 6 tensors)

rnn.weight_ih_l0 f4 [400, 5]
000000 80 d2 55 3d 64 f0 c4 3c 88 f2 19 bd 48 5a d6 bc
       0.0522027 0.024040408 -0.03758481 -0.026166096
000010 3c a7 1e 3d e1 06 d5 bd 83 03 c5 bd e5 92 0c 3d
       0.038733706 -0.10401703 -0.096198104 0.034319777
000020 02 fd 09 3d 73 e7 43 3d 01 4e b6 3c e7 92 0c bc
       0.033688553 0.04782815 0.022253992 -0.008579946
000030 04 cb f5 bd 26 52 e5 bd a9 5b 84 3d ed c4 7c bd
       -0.12001613 -0.11197309 0.06462795 -0.06171124
000040 dd 0f 8b 39 a4 2b a9 3a c9 d7 99 bd 8f 80 36 be
       0.00026523965 0.0012906683 -0.07511861 -0.17822479
000050 6c c3 a2 bc 3e d0 e4 3c 29 3f 06 3d 30 dd d0 3d
       -0.019868575 0.027931329 0.032775078 0.10198438
000060 fe c9 5a 3d bd fb dc bc d4 a7 e1 3d 45 97 a9 38
       0.05341529 -0.026975507 0.11018339 8.086724e-05
000070 ce 1e f3 3d 5a d1 7a 3d ed e9 87 bd b3 7b 32 3d
       0.1187111 0.06123481 -0.06636415 0.043575
000080 b6 69 40 bb 57 86 c5 bd 31 95 ea 3d 85 ec 20 bd
       -0.0029359884 -0.09644764 0.11454237 -0.039288063
000090 b1 91 bc 3d 0d 45 e6 3c 11 6a 19 3d dd 53 53 bd
       0.09207476 0.028109098 0.03745467 -0.05159365
0000a0 79 aa 6d 3d ca c6 85 3d d8 78 83 3d a8 4d e5 3d
       0.058023904 0.06532057 0.064195335 0.111964524
0000b0 70 f7 79 bd 33 b9 93 bd 39 e8 16 3c 22 96 34 3d
       -0.06102699 -0.07213058 0.00921064 0.04408849
0000c0 a0 ea 20 3d eb 8e d6 bc 7c 64 be bd 55 27 b0 bd
       0.039286256 -0.026191195 -0.092965096 -0.08601252
0000d0 57 c0 8c bc 4c 21 07 3c 15 ce 69 3d f0 93 f3 bd
       -0.017181559 0.008247685 0.0570813 -0.11893451
0000e0 10 5d 4a 3b 7d 26 26 bc b6 4d 37 3d b6 c1 71 bc
       0.0030878223 -0.010141012 0.044751845 -0.014755657
0000f0 e5 71 c5 bd c2 cb dd 3c dc be ac 3c bc 4d 47 bd
       -0.09640864 0.027074698 0.021087103 -0.048658118
000100 f8 8b c7 bb f2 16 7b bd 8b 21 bc bd e2 0b 85 3d
       -0.0060896836 -0.06130118 -0.09186085 0.06496407
000110 b5 a7 6e 3d bc 7f 45 bd da 06 1c be d0 bf 21 bd
       0.058265407 -0.04821752 -0.15236989 -0.039489567
000120 2f 30 02 be 89 e3 f8 bd 55 d5 99 bd 00 13 ac 3d
       -0.12713693 -0.12152774 -0.07511393 0.084020615
000130 ce d4 4c 3d ab 69 59 3d c9 9e 9e bd bc 9b 44 bd
       0.050007634 0.05307929 -0.077451296 -0.048000082
000140 33 eb a5 3d 27 57 82 3d 58 5e f4 3d e9 d3 b9 3d
       0.08101501 0.06364279 0.11932057 0.09073622
000150 6f a6 00 be 6b 35 0f be 81 07 ca bc ef d4 b2 bd
       -0.1256349 -0.13985221 -0.024661781 -0.0873202
000160 af 9f 20 3c 87 71 1f 3e 51 c5 f2 3d e2 a5 ef 3d
       0.009803697 0.15570651 0.11854041 0.117015615
000170 5f ea 08 3e ea 95 ad bc 5a 96 bb 3d a5 fd 82 3d
       0.13370655 -0.021189649 0.09159537 0.06396035
000180 1d e8 b3 3d 36 db 14 bd 34 1d 4f bc 1a e3 4f 3e
       0.087845065 -0.03634187 -0.01264124 0.20301476
000190 92 27 41 3d 5d 3a 00 3d 9e a5 c9 3c 0e 79 b1 3c
       0.047156878 0.03130566 0.024615105 0.021664169
0001a0 7e c3 d8 3d ba 3a 49 bc 1c 9c 53 3d c1 40 9f bd
       0.10584162 -0.012282068 0.05166255 -0.07776023
0001b0 cf a5 8c 3d 0f 42 f9 bd bf e3 2b bb 6e dc 1c 3d
       0.06867563 -0.12170803 -0.0026228277 0.038296156
0001c0 66 05 d3 bd 49 67 8d 3b e3 24 3d 3e b1 ff c4 3d
       -0.10303764 0.004315291 0.18471102 0.09619082
0001d0 4a 9a ab bd 92 61 68 3d e7 c1 c5 3c a3 e6 73 3c
       -0.08379038 0.056733675 0.024140311 0.014886531
0001e0 79 94 85 3c ac 80 65 3c ee d7 1a bd 65 1a 2b 3d
       0.016306149 0.014007729 -0.037803583 0.04177322
0001f0 b0 e8 7d bd 1f 29 9c 3a d0 8b 02 3d 49 4f 54 3a
       -0.061989486 0.001191411 0.031871617 0.00080989726
000200 e6 9d 4e bd 74 d6 cb bc 3d 3d 86 bc e9 b4 d1 bd
       -0.050443552 -0.024882533 -0.016386623 -0.10239584
000210 66 44 6e 3c 1d 7a 6c bd ac 8b 91 bc 3f 6d db bd
       0.014542675 -0.057733644 -0.017766796 -0.107141964
000220 ec 94 dc bc dd f9 8e 3a 46 aa ae bd 52 e5 9e bd
       -0.02692648 0.0010908205 -0.08528571 -0.07758583
000230 56 47 a9 bc 96 ec c1 3c 8b 03 ca bd bb 6d 9b bd
       -0.020663898 0.023672383 -0.09863957 -0.07589289
000240 17 d0 22 bd c7 28 e6 bd c4 15 99 bc 22 75 dc 3c
       -0.03974923 -0.112382464 -0.018687136 0.026911322
000250 f6 e1 0f 3c 89 1c 74 3c 7c 42 1b 3c ad be c5 bd
       0.008781901 0.014899381 0.0094763 -0.09655509
000260 71 68 ec 3c 68 99 70 bd 83 31 9f bc a4 fa 72 bd
       0.028858395 -0.05874005 -0.019432789 -0.05932106
000270 0d 86 3c 3d c8 34 99 bd f3 79 bd bd 3e 4f 59 3d
       0.04602628 -0.0748077 -0.092517756 0.053054087
000280 0e 37 ad 3c e4 79 e3 bd d1 6c 0b bd a5 3e f8 3b
       0.021144416 -0.11107233 -0.034039322 0.007575827
000290 8a 8c 38 be 02 b3 61 3d 3f fb 6c 3d 58 0f 80 3d
       -0.18022361 0.055102356 0.057856794 0.062529266
0002a0 8d 39 db bd dc 64 8e 3d db ee 11 be 5a 97 de bc
       -0.10704336 0.06952831 -0.14251272 -0.02717178
0002b0 ad 9b 83 bd d2 82 1c bc 3e 2b 4a 3e d2 61 c9 3d
       -0.06426177 -0.009552674 0.19743058 0.09833111
0002c0 0c 00 31 3d a9 9e e3 3a 23 1b 81 3d e9 45 bc bd
       0.043212935 0.001736601 0.06304004 -0.09193022
0002d0 b4 94 72 3d 8f 47 9a 3d 3d c6 89 bd cd a7 d4 bd
       0.059223846 0.0753318 -0.06727264 -0.10383568
0002e0 40 36 c1 bc 05 b7 0a bd 6c 72 22 3d cb d1 26 bb
       -0.023585439 -0.033865947 0.039659902 -0.0025454636
0002f0 68 c0 89 3b 97 b8 9c 3d 4b 19 d2 bc 0b d5 6c 3d
       0.004203845 0.07652395 -0.025646826 0.05782036
000300 ef b0 a6 3d b9 52 af 3d bb 8f 10 3d d2 7a c2 3c
       0.08139216 0.085607 0.035293322 0.023740206
000310 73 08 8b bd 9e 50 72 3b 2c 56 f6 bd 93 95 96 bd
       -0.06788721 0.003697432 -0.12028155 -0.07352748
000320 d8 32 03 bd 85 70 c1 3a 05 b9 0b bc 78 f0 98 bd
       -0.03203091 0.0014758265 -0.008527999 -0.07467741
000330 53 9b 9a 3d 30 05 9f 3c 1e 0c 1c 3c c1 20 0e bd
       0.07549157 0.019411653 0.009524373 -0.034699205
000340 44 d0 ca bb 2e ee 25 3d 9e 53 85 3d 74 13 64 3d
       -0.006189378 0.04051035 0.06510089 0.055682614
000350 1f 54 8b 3d ea 98 18 bd c6 fc 5f bd 39 0b dc bd
       0.06803154 -0.037255205 -0.054684423 -0.10744328
000360 e3 a1 80 bd 30 a3 02 be 62 ee 8a 3c 2c 6d 91 3d
       -0.062808774 -0.12757564 0.016959373 0.07100901
000370 d1 ac 08 be c9 20 86 bd 1f 28 88 bc 76 74 82 3d
       -0.13347174 -0.06549222 -0.016620694 0.063698694
000380 dd 9a 06 3d c0 d6 09 bd 75 93 cb 3c b3 84 51 bd
       0.032862533 -0.033652067 0.024850586 -0.051151942
000390 59 bc 74 bd 8b e7 15 bc e3 4a 14 be a0 46 40 3c
       -0.059749935 -0.009149442 -0.14481692 0.011735588
0003a0 4f 4e fa 3b 5c 33 f6 bc 25 37 17 3d b4 e0 d3 3d
       0.0076387296 -0.030053787 0.036917824 0.10345593
0003b0 9d 79 b8 3c 60 45 a4 3d a6 f0 c7 3c d7 4c a4 bd
       0.022518927 0.08021045 0.024406742 -0.080224685
0003c0 c5 5b d3 3c c1 77 d5 bd e7 69 91 bd bd 08 b7 bd
       0.025800595 -0.10423232 -0.071002774 -0.089372136
0003d0 4b 06 cd bd a3 72 35 3d df 72 be bc 7d 1d a0 3d
       -0.10010966 0.04429878 -0.023248134 0.078181244
0003e0 26 0c 12 3d e8 52 9d bd 1b ec f0 bd cb 18 f6 bd
       0.035656117 -0.07681829 -0.117637835 -0.12016448
0003f0 08 d3 50 3d 14 98 c6 bd c5 14 a2 3d 02 88 6b bd
       0.050982505 -0.09696975 0.07914118 -0.057502754

rnn.weight_hh_l0 f4 [400, 100]
000000 f1 2e cd b9 4d b6 ea 3d 67 c2 8e bd c4 35 04 3e
       -0.0003913562 0.11460552 -0.06970673 0.12911135
000010 c4 9c 1e 3c 39 42 18 3e e5 98 00 3e 9d 16 5d 3d
       0.0096809305 0.14869012 0.12558325 0.053976644
000020 23 0c 0f be 94 66 86 bc ef f0 78 3d a7 a9 29 bd
       -0.13969474 -0.016406335 0.060776647 -0.04142156
000030 10 cc c4 3d a1 4c 69 3d 42 9b cf bd a3 ca 37 3d
       0.09609234 0.056957845 -0.10137035 0.044870984
000040 32 6f 06 be 22 35 3b be e1 ad 17 3e 84 7e 2f bd
       -0.13128355 -0.18281987 0.14812423 -0.042845264
000050 b6 bb e6 bd 81 bd c8 bb ff cf 92 3d 30 6d 1e be
       -0.11266272 -0.0061261063 0.07168578 -0.15471339
000060 ad 8b 08 be bc f8 17 ba 0c 9b f0 3c d6 8c a5 38
       -0.13334532 -0.0005797257 0.029370807 7.894046e-05
000070 91 2f b6 3d f8 93 8a 3d 05 92 60 3d a3 59 88 bd
       0.08895791 0.06766504 0.054826755 -0.06657722
000080 0a 46 2d be c6 cb d7 3d 45 64 8a 3d e9 6d 22 3d
       -0.16921249 0.105369136 0.06757406 0.0396556
000090 59 25 9d bd 26 51 1d 3d ed 39 d7 3d 6e 5e a0 bd
       -0.07673139 0.038407467 0.10509095 -0.07830511
0000a0 19 75 9a bc 13 8d 5f 3d c0 79 c2 bb f8 21 ca 3d
       -0.018854665 0.0545779 -0.005934924 0.0986976
0000b0 60 0e bb 3d 95 61 59 3d 9e e7 2c 3e 2a ba 1f be
       0.09133601 0.053071577 0.1688523 -0.1559836
0000c0 ae 3a 07 be 71 e1 2c 3c 2e 72 e6 bd bf 82 e4 3c
       -0.13205978 0.010551796 -0.11252247 0.027894376
0000d0 4e 6c 75 be 1e 16 f8 bd 84 3c 40 3e 64 53 02 be
       -0.23967096 -0.121135935 0.18773085 -0.12727123
0000e0 ff 62 9f bd 35 97 cb bd 4e 6a 14 3e 8d 9b 9d 3d
       -0.07782554 -0.0994095 0.14493677 0.076956846
0000f0 a4 e6 17 bc a8 f0 04 3b a6 8d 3e bd 7d c7 e5 bc
       -0.009271298 0.0020285044 -0.046521805 -0.028049225
000100 1a 1e 2d bc 69 fb 29 3e 5b 42 1c bd a5 63 4d 3d
       -0.010566259 0.16599812 -0.03814922 0.050143857
000110 71 f8 12 3e a7 a1 db bd c6 46 9e 3d c4 01 71 3d
       0.14352585 -0.10724192 0.07728343 0.058839574
000120 fd 10 fa 3d df 96 1f 3d cc 88 30 3e 48 32 f5 3d
       0.122102715 0.03896224 0.17239684 0.11972481
000130 f1 64 03 bc 7f e2 eb 3d 05 c9 26 3e 53 de 36 3e
       -0.008019672 0.1151781 0.1628762 0.17858247
000140 31 af 36 3e 73 9f 81 bd e5 06 82 bb 20 0e a8 3d
       0.17840268 -0.06329241 -0.003968107 0.08205819
000150 19 7e f7 3d 82 1a 3e bd e7 a0 01 3e 71 84 c8 3b
       0.12084598 -0.046412 0.12659036 0.006119304
000160 31 d5 2b 3e 72 74 0b 3e e5 6e de 3d e2 a2 a4 3d
       0.16780545 0.13618639 0.10860995 0.0803888
000170 8b 28 5f 3d fe 8c d5 bc 47 46 16 3e bf b0 85 bd
       0.054482024 -0.026068207 0.14675246 -0.06527852
000180 2b f5 21 3d 6c 42 f3 bd b4 76 70 bd f0 98 00 be
       0.03954045 -0.11877903 -0.058706954 -0.12558341
000190 3b 50 17 ba 87 88 7a bd 78 51 3f bd 76 04 70 3d
       -0.0005772148 -0.06116536 -0.046708554 0.058598004
0001a0 41 24 34 3d 90 62 19 bb 3e 9f b7 3d e5 18 96 3b
       0.043979887 -0.0023404695 0.0896592 0.0045806044
0001b0 7e 87 80 bd 82 87 2e bd d7 4a 23 bc c7 92 73 bd
       -0.06275843 -0.0426097 -0.009966574 -0.05946615
0001c0 3a 6c b1 bd f5 61 cc bd 2c 65 79 3d 84 15 60 bd
       -0.08663221 -0.09979621 0.0608875 -0.05470802
0001d0 89 60 2b bd a6 df 0f 3d 0a 8a 6f 3a 17 36 6d 3d
       -0.04184011 0.035125397 0.0009137696 0.057912912
0001e0 96 a8 ad 3d 90 c2 4d 3d 4a f4 03 3d be 60 b9 bd
       0.08479421 0.050234377 0.032215394 -0.09051655
0001f0 18 77 47 3d a6 9c 33 3c 9a 4c 35 3c 7c 68 89 3d
       0.04869756 0.010962641 0.0110656265 0.06709382
000200 b3 0a 41 3d d3 f1 a5 3d 64 8e 50 bd 7d 7a b7 bc
       0.047129344 0.08102765 -0.050917044 -0.022397274
000210 e9 7b 0b 3c ba d5 45 bd e3 41 45 3d 45 fb fb bc
       0.008513429 -0.04829953 0.048158538 -0.030759463
000220 1b 67 a1 bd 17 39 61 ba 79 56 44 bd 35 6b c3 bd
       -0.07880994 -0.0008591576 -0.04793403 -0.095419325
000230 63 52 69 bd ab 6b be bc 3a 7e c3 bc 57 4d 8e 3d
       -0.056963336 -0.0232447 -0.0238639 0.06948345
000240 ea 8e b3 3d fd 4e 31 bd 20 49 16 3d 07 63 fc 3c
       0.08767493 -0.04328822 0.03669083 0.030808939
000250 a3 53 86 bc da e6 84 3d df 08 4e 3d 31 4e 97 3c
       -0.016397303 0.06489344 0.05030143 0.018469902
000260 5e 03 2e bd 57 f9 ba bd 92 d4 b9 3c 3e 43 83 bd
       -0.04248368 -0.09129589 0.02268437 -0.0640931
000270 00 4a 0c bc 4e 3a 1b bd fc ab a6 bc 3e 6f 6e 3c
       -0.008562565 -0.0378974 -0.02034568 0.014552889
000280 67 3c dc 3c 9e 98 fe bc 88 98 82 3d e0 d4 b3 3c
       0.02688427 -0.031078633 0.06376749 0.021952093
000290 d7 45 45 3d 0b e5 51 3d ce 51 47 bc e2 04 50 3c
       0.048162308 0.051243823 -0.0121655 0.012696477
0002a0 31 ba c7 3d b4 64 c8 bd 1a 5f 2e bd 7d a2 6a bd
       0.0975231 -0.097848326 -0.042571165 -0.057283867
0002b0 02 c3 c8 bc b7 ca c2 3d 66 04 59 3d 66 27 70 bd
       -0.02450705 0.09511321 0.05298271 -0.058631323
0002c0 62 4a 46 bd bc 6c 92 bc 71 b2 19 3c 16 21 ad 3d
       -0.04841078 -0.017874114 0.009380923 0.08453576
0002d0 f6 81 35 3d 4d 26 0a bd f3 be ab 3d c1 b4 84 3d
       0.044313394 -0.033727933 0.0838603 0.064797886
0002e0 82 b2 89 3d 5b e4 a0 bd c9 58 07 3e ff b9 99 bc
       0.06723501 -0.07856055 0.13217463 -0.018765448
0002f0 01 84 42 3d a5 0a c2 bd fe 95 7b 3c 4d c2 98 bc
       0.04748917 -0.094746865 0.015355585 -0.018647337
000300 93 36 a9 3d 8e 37 ba 3d 63 04 ae bc d0 57 82 3b
       0.08262362 0.090926275 -0.021242326 0.003977753
000310 33 b3 aa bd c4 f9 96 bc db b9 80 3c ed b2 9a 3d
       -0.08334961 -0.018429644 0.015713623 0.07553659
000320 d9 d0 8b 3d 3d a3 11 3d 3b 0e 8a 3d 7c 01 c8 3b
       0.06826944 0.035556067 0.067409955 0.0061036926
000330 b9 b7 5b bd 8b 1d 2f 3d 16 dd 7a bd 2d 2c 83 3c
       -0.05364201 0.042752784 -0.061246 0.016012276
000340 18 0f b9 bc 06 25 89 3d dc 69 4f bc 29 a2 77 bd
       -0.022590205 0.06696515 -0.012659516 -0.060457382
000350 1e 15 f0 3c 50 08 51 3c 79 a4 07 3d 89 96 04 bd
       0.029306944 0.0127583295 0.033115838 -0.032370124
000360 f7 ea 2c 3d d6 d3 21 3d 00 8c 0d 3d 71 e0 16 bd
       0.042216267 0.039508663 0.034557343 -0.036835138
000370 e5 ca f9 bb ca f7 3d 3d 11 ed 0f bd be 37 2c bd
       -0.007623064 0.04637889 -0.035138194 -0.042045347
000380 30 fc 88 bc df af f9 3c e3 24 83 bd 8e 74 23 bd
       -0.016721815 0.03047937 -0.0640352 -0.039906077
000390 7c c7 57 bd 2a d0 2b bc af fa a3 3c a0 f4 99 3d
       -0.052680477 -0.010486642 0.020016996 0.07517362
0003a0 99 d1 09 3d 89 cb 7c 3c d3 c4 41 bd 8a 29 38 3c
       0.033647154 0.015429386 -0.047306847 0.011240372
0003b0 24 d9 f2 bc a3 a4 a3 b9 e8 66 60 bd d7 fd 1c 3d
       -0.029644556 -0.00031212447 -0.05478564 0.038328018
0003c0 dd 29 09 3d 26 0e f5 bc 47 5e 56 3d 82 03 95 3c
       0.03348719 -0.029913973 0.052336004 0.01819015
0003d0 2f 34 d1 3c 98 eb b6 bb ec 4d 86 bc 47 93 6c 3c
       0.025537578 -0.005582284 -0.016394578 0.0144394105
0003e0 e9 f8 09 bb 0e 81 24 bc dd c4 84 bd 02 a9 a8 3d
       -0.0021052903 -0.010040535 -0.06482861 0.08235361
0003f0 a1 cd e6 ba 4d d3 25 3a 30 ef 5d 3c 97 c8 a2 3d
       -0.001760889 0.0006325737 0.013545796 0.07948416

rnn.bias_ih_l0 f4 [400]
000000 e8 d4 55 3e c8 b8 01 3e f2 e3 96 bb fb 7f c2 3d
       0.20881999 0.12668145 -0.00460481 0.094970666
000010 7d 06 fb ba 56 79 69 bd 77 70 22 3e d6 cd ce 3d
       -0.0019151714 -0.05700048 0.15863214 0.10097854
000020 94 3f 28 3d f0 65 3b 3d 54 cb 2f bd 3a fa 82 3d
       0.041076258 0.045751512 -0.04291852 0.06395383
000030 a5 ea 06 3e ea 77 d9 3d e0 79 aa 3c 93 c5 28 bc
       0.13175447 0.10618575 0.020810068 -0.010301012
000040 df 00 88 bc e9 23 02 3e 11 dd 5f bc 22 36 34 3e
       -0.016601978 0.12709011 -0.013663546 0.17598775
000050 0b 41 9d bd 55 6f af bc 78 2e f8 3c 48 b7 07 3c
       -0.076784216 -0.021415392 0.030295596 0.008283444
000060 71 74 93 3d 30 92 f3 3c 83 df 55 bb e4 f3 0e 3e
       0.07199944 0.029732794 -0.0032634444 0.13960224
000070 86 78 e4 3d 26 e4 5a bd bd a9 99 3c 94 92 41 3d
       0.111558005 -0.053440236 0.018757695 0.04725893
000080 d4 a9 e0 3d 78 98 ab 3d 1a 93 87 3e be 66 1b 3d
       0.10969892 0.083786905 0.26479417 0.03793978
000090 80 d9 65 ba 6b 2e 8f 3d 89 d8 26 3d cf bc 21 bb
       -0.0008768067 0.069912754 0.040733848 -0.002467919
0000a0 c7 37 b7 bc 05 7a 79 3d fa 8d c5 3d f5 26 0f 3e
       -0.022365464 0.060907383 0.096462205 0.13979705
0000b0 86 5a ee 3d 42 58 4d bd 1c f1 81 3d 87 5c a9 3d
       0.1163836 -0.050132997 0.06344816 0.08269601
0000c0 fb a0 af 3d ae 1e 22 3e ce 7f 7d 3b 8f ff cb 3d
       0.085756265 0.15832016 0.0038680914 0.09960853
0000d0 c2 f9 21 bd 65 38 65 3d 9f f9 13 3d 98 65 d1 bc
       -0.03954483 0.055961985 0.03612673 -0.025561139
0000e0 11 9c ff 3d 59 3b 89 3d 45 e4 92 3c e4 c4 b9 3d
       0.12480939 0.06700773 0.017931113 0.09070757
0000f0 5f 87 62 3d d9 58 c6 3c 8c d2 8f 3d 47 b2 d1 3d
       0.05530488 0.024212288 0.070225805 0.10239082
000100 24 dd 67 3e aa fa f4 3d d9 91 b5 3c 8e 66 03 3d
       0.22642952 0.11961873 0.022164272 0.032080226
000110 81 67 26 3d a0 90 e8 3d 70 f4 5a 3d 48 94 ac 3d
       0.040626053 0.1135571 0.05345577 0.0842672
000120 60 86 48 bd 11 da 0f 3e 58 58 28 3d 90 fc 15 bd
       -0.048956275 0.1404803 0.041099876 -0.036617815
000130 07 7f 9d 3e 59 b4 24 3d 05 3a 0b 3e 75 85 9f 3d
       0.30760977 0.040211055 0.13596351 0.07789127
000140 77 2e b4 3c a0 06 3c 3b a3 18 eb 3d b5 55 01 3d
       0.021994812 0.0028690472 0.114793085 0.031575877
000150 02 dc 0b 3e 4b 20 28 3b be 65 f1 ba e9 f4 e9 3d
       0.13658145 0.0025654014 -0.0018417162 0.11423666
000160 c4 cc 3f 3d 93 95 69 bd d3 9f 94 3d 02 38 a0 3e
       0.04682614 -0.05702741 0.072570466 0.3129273
000170 c7 d9 49 3d 71 39 00 3d cc 8d 68 3d 20 17 f2 3d
       0.049279954 0.03130478 0.056775853 0.11820817
000180 1c c3 8f bc a3 06 d3 3d a6 0c 73 3d 0c 7f b1 3c
       -0.01754909 0.10304 0.059338234 0.021667026
000190 5e f3 fd 3c fd df 3e bd 7d 6e bf bd ed bb f7 bc
       0.030999836 -0.04660033 -0.09347246 -0.030240977
0001a0 ff e1 75 3d 14 b3 be 3d 8b dd e4 bc 42 47 ba 3d
       0.06002998 0.093115 -0.027937671 0.090956226
0001b0 20 3c 71 3c 8a f2 ec 3b c7 9c d9 3d 90 97 d3 bc
       0.014723808 0.0072310613 0.10625606 -0.025829107
0001c0 1f 6b 64 3d 34 f3 e1 3c 6f ba 94 3d a7 01 bc bd
       0.05576622 0.027581789 0.07262122 -0.09180003
0001d0 f1 51 c3 3d e9 26 c6 bd e5 e7 7a 3d 51 2c ac 3a
       0.095371135 -0.0967539 0.061256308 0.0013135766
0001e0 22 67 95 bd a5 bb 2e 3d 3e 69 bb 3d c3 2d 36 bd
       -0.07295062 0.04265942 0.09150933 -0.044477236
0001f0 dc c9 74 bc a0 3f 35 bd b5 ac 82 3d 6b 03 1c bd
       -0.014940705 -0.04425013 0.063805975 -0.038089197
000200 a1 ca d9 3d d3 63 d9 3c 07 68 c7 bc 44 5a 60 bc
       0.106343515 0.026536858 -0.024341596 -0.013693396
000210 38 89 e4 3c 03 43 96 3d fd 2c b2 bd 7f ae 92 bc
       0.027897462 0.07337 -0.08699987 -0.017905472
000220 b7 ff a0 3d 0e 45 a1 bd 3c 6b 79 3d ca 2d cf 3d
       0.07861274 -0.07874499 0.060893282 0.101161554
000230 1d f9 0c bd 9e 66 ba 3d d0 89 d7 3d 5d 96 07 bc
       -0.03441726 0.09101604 0.105243325 -0.0082755955
000240 98 ed 58 3b c4 bb c5 3c 8f 1e b6 bd 35 58 b1 3d
       0.0033100601 0.024137385 -0.08892547 0.08659402
000250 fa 64 9b bd 22 91 9f 3d 35 f0 ae bd 51 c7 ea bc
       -0.07587619 0.07791354 -0.085419096 -0.028659495
000260 fa a0 2d bd aa d6 c9 3d fc 04 e6 3d 65 07 9c 3d
       -0.042389847 0.09855397 0.112314194 0.07618598
000270 72 28 be 3d da 73 04 bd 23 52 6c bd 5a 53 64 3d
       0.09285058 -0.032337047 -0.05769552 0.055743553
000280 14 58 a8 bd 07 04 7d bd f2 a9 bb 3d db 8d 44 bd
       -0.082199246 -0.06177142 0.09163274 -0.047986846
000290 e0 4a b7 bd a8 c3 30 bb 0d f2 8d bd bd 0d b8 bd
       -0.08949828 -0.002697209 -0.06930933 -0.08986995
0002a0 6b 2c 27 3d 46 d9 dd bd 92 b6 67 3d 28 b0 77 bd
       0.040813845 -0.10832457 0.056570597 -0.06047073
0002b0 c8 4d db bc 25 18 8c 3c ee d6 f2 bd 95 dc 30 bc
       -0.026770487 0.017101357 -0.11857401 -0.010794778
0002c0 e3 00 9e 3c e6 5c 80 bd a7 05 38 3c e9 12 3d 3d
       0.019287532 -0.06267719 0.011231816 0.046160612
0002d0 a7 e1 fb bc 23 1e 9e bd 58 90 b9 bd 67 a6 b3 3d
       -0.030747248 -0.07720592 -0.090607345 0.08771973
0002e0 3e ab 3a 3d 8f 43 4d bd 27 f7 93 3d 1b f3 ac bd
       0.045573466 -0.050113257 0.07224875 -0.08444806
0002f0 c8 77 dd 3d 53 5b e3 bc f0 10 19 3d 8f fd 23 be
       0.10813862 -0.027753508 0.03736967 -0.16014694
000300 f4 86 98 3d a7 33 9c 3c 57 4a f6 3b c6 5c 88 3d
       0.07447615 0.019067599 0.007516186 0.0665832
000310 0d 06 ca 3d a0 ba 32 bd 86 45 12 3b 03 0a 09 3e
       0.09864435 -0.04363501 0.0022319271 0.13382725
000320 e4 4c 74 3c c0 3b f3 bc b2 3b c2 bd 41 6f c9 3d
       0.01491091 -0.029691577 -0.09484042 0.09835673
000330 d4 65 0a bc e9 52 52 bd d7 6b 3a 3d 69 4d dd bc
       -0.008447129 -0.0513486 0.045513 -0.027014451
000340 b6 42 38 bd e0 00 82 3c 12 28 55 3d 07 7e 78 3c
       -0.044985496 0.015869558 0.052040167 0.015166766
000350 3a eb d9 3d c6 cd 35 3b 6e a7 c6 bb da 28 8b 3d
       0.10640569 0.0027741059 -0.0060624396 0.06794901
000360 be ca ee bd 3a e7 a1 bd 64 57 d2 3c 0c 77 95 3d
       -0.11659764 -0.07905431 0.025676437 0.07298097
000370 9f 53 75 bd a5 ca 27 bd ac 2b 19 bd 0f 10 11 3b
       -0.0598942 -0.04096474 -0.037395164 0.0022134816
000380 53 37 4e bd 33 cb ae bc 8f 9b bb 3d 20 b7 b8 bc
       -0.05034573 -0.021337127 0.0916053 -0.022548258
000390 a6 56 69 3c dd 30 37 3d 8a 42 26 bd 22 d1 53 3c
       0.01424185 0.044724334 -0.0405908 0.012928279
0003a0 22 e2 b6 bc 40 79 31 3d 73 d4 de bd 8a d5 36 3d
       -0.022324625 0.043328524 -0.10880365 0.04463724
0003b0 c2 ae 1a 3c 11 b5 1d 3c 90 d7 8d 3d 8f dd 73 bc
       0.00944108 0.009625689 0.06925881 -0.014884367
0003c0 e2 5f 01 3d b6 4b 53 3d 9f db d5 3c 60 d4 52 3d
       0.03158558 0.051585875 0.0261057 0.051472068
0003d0 86 eb cc 3d 92 ec 16 3d 72 54 51 3d b2 52 a9 ba
       0.1000586 0.036846705 0.051105924 -0.0012918322
0003e0 3b 8b 30 3c 4a 59 39 3c 00 20 94 bd dc 2c 11 bd
       0.010775383 0.011312792 -0.07232666 -0.03544317
0003f0 39 d2 b8 bd 88 b6 21 bd 1c dc 40 3d 72 cd 8c bd
       -0.09024472 -0.039480716 0.047084913 -0.06875123

rnn.bias_hh_l0 f4 [400]
000000 a8 78 32 3e d0 74 49 bd 8f 43 2f bd e8 23 2a 3d
       0.17428839 -0.049183667 -0.04278904 0.04153815
000010 35 a1 94 3d aa 8b ba 3d af f4 c0 3d f3 59 0f 3e
       0.0725731 0.0910867 0.0942167 0.13999157
000020 16 c6 d5 bc 17 5d 9e 3d 48 27 c6 3d 96 45 ad 3d
       -0.026095431 0.07732599 0.09675461 0.08460538
000030 f1 2b 11 3d 4d 7e 2f 3e 1e b0 ec 3b a6 6c 07 3e
       0.035442296 0.17138024 0.0072231432 0.1322504
000040 c6 b1 7a 3d 97 91 0b bc 77 da 86 bc 6f 9e f0 3d
       0.061204694 -0.008518598 -0.016461594 0.11748969
000050 50 eb 9e bb 44 af fb 3d aa 7d 39 bd 17 7d 82 3c
       -0.004849829 0.12289289 -0.04528586 0.015928788
000060 9f 8b b5 3d 6f 71 a3 bc 0c d7 ce 3d ab c0 d9 3d
       0.08864521 -0.01995155 0.10099611 0.106324516
000070 8e 07 99 3d ae c2 56 3d bf 94 d3 3c 51 49 c1 3d
       0.07472144 0.052431755 0.025827764 0.09437812
000080 2a 92 bd 39 87 8e d7 bc fd 2c 9a 3e 62 a7 e6 3d
       0.0003615779 -0.02631308 0.30112448 0.112623945
000090 ae 30 ee 3d 4b d8 35 3d 43 e0 ac 3d b4 d5 84 3d
       0.11630379 0.044395726 0.08441212 0.06486073
0000a0 be 0f 51 3d 53 43 93 3d 98 2d 61 bc 9d 73 f1 3c
       0.051040404 0.071905755 -0.013743781 0.029474074
0000b0 05 16 87 3d 27 7a f6 bc 9c 9c b9 3d 3d 8a 5e bd
       0.06595997 -0.030087544 0.09063074 -0.054331053
0000c0 51 3d b8 3d 37 c1 13 3e 8f 2e 33 bd 59 1a b2 3c
       0.0899607 0.14429174 -0.043745574 0.02174108
0000d0 21 4b 72 bd cc 6a e8 3d ff 14 46 bd 50 fc 2b bd
       -0.05915368 0.11348495 -0.048359867 -0.04198867
0000e0 a2 bd 02 3c 77 b6 69 3c 47 86 c8 3d bc 4b 0b 3e
       0.007979782 0.014264694 0.09791236 0.13603109
0000f0 a9 c0 38 3d 55 4c fa 3d a9 d6 9e bc 25 c1 0b 3e
       0.04510561 0.122215904 -0.019389467 0.13647898
000100 ea de 63 3e b5 d6 3d 3b e2 a2 3a 3d 35 db a4 bc
       0.22253004 0.0028967087 0.045565493 -0.020124057
000110 9a d6 97 3d 07 7f 2a 3e 96 79 ee 3b cd 1f 42 bd
       0.07413979 0.1665002 0.0072776778 -0.04739361
000120 86 f5 75 3d ad 77 ab 3d ea ae 70 3c 63 6e 3e bc
       0.060048603 0.08372436 0.01469014 -0.011622998
000130 e7 15 46 3e 2b d6 81 3d e3 b5 f6 3d 9a ab 80 bd
       0.19344293 0.063396774 0.12046411 -0.062827304
000140 bb 49 96 bd 0d 1f 00 3e aa 54 25 3e 34 8d 89 bd
       -0.07338282 0.12511845 0.16145578 -0.067163855
000150 ce 32 e5 bc 43 a4 1a 3b 08 e0 82 3d 0f c7 56 3c
       -0.027978327 0.0023596443 0.06390387 0.013108983
000160 fc 0b ed 3d 0d c6 b3 bc 07 f6 c3 bc 77 22 6a 3e
       0.115745515 -0.021945024 -0.023921026 0.2286471
000170 d4 fb e2 bc 84 3e ef 3d 1f 41 23 3d 5b 6c 2d 3e
       -0.027707972 0.11681846 0.039857026 0.16935866
000180 8a 42 e0 3a 05 3c f2 3d 66 4d 88 3c 04 2e 4f 3d
       0.0017109674 0.11827854 0.016638469 0.050580993
000190 e0 60 a7 bd e8 4c 27 bb b2 9f ba bd 2c 7b 83 bd
       -0.08172774 -0.0025528017 -0.09112491 -0.064199775
0001a0 1c ee 24 bd 37 df 6d 3d 1e b1 7b 3c 40 38 2f bd
       -0.04026614 0.058074202 0.015362052 -0.042778254
0001b0 7d ad 2c 3d be 3d 4f 3d 47 be 7b 3b d5 0a 58 3d
       0.04215764 0.05059599 0.0038412975 0.052744705
0001c0 13 0a 61 bd 9a 5a 02 bd 3f ed 97 bd af 62 c1 bc
       -0.05494125 -0.031824686 -0.07418298 -0.023606626
0001d0 6e 0c 08 3d 00 4c 51 bc ed 06 d3 3b e1 4e ae 3d
       0.03321498 -0.0127744675 0.0064400346 0.08511139
0001e0 cb 2c 88 3d 9b a8 df 3d 5c f5 6f bd 51 6e 86 bc
       0.066491686 0.10920831 -0.058583602 -0.016410025
0001f0 fd 68 0c 3c 6a 70 af 3d 37 9b 97 bd 21 66 49 bd
       0.008569953 0.08566363 -0.07402652 -0.049169663
000200 3d 98 b7 3b a8 ce cd 3c 9d 39 67 bd ca 57 b9 3d
       0.005602865 0.025122955 -0.05645143 0.090499476
000210 e5 d9 79 bc d2 fd 83 3d 19 98 58 bd b2 47 dd 3d
       -0.015249704 0.06444897 -0.052879427 0.108046904
000220 a2 cc 90 bd 08 17 b0 bd 9c 67 5a 3c b7 37 a9 3d
       -0.070702806 -0.08598143 0.013330366 0.0826258
000230 47 42 23 3d 5e 20 c7 3d 06 a9 4a 3d e4 b5 64 3d
       0.03985813 0.097229704 0.0494776 0.055837527
000240 0e f4 a7 bd 1c 2d a9 bb cd 12 87 bd 49 ea 41 bd
       -0.082008466 -0.005162848 -0.06595383 -0.047342572
000250 28 e2 51 bd 61 c2 17 bc 20 b2 92 bc 70 4a a2 3d
       -0.05124107 -0.009262652 -0.017907202 0.07924354
000260 47 2e 09 bc 36 72 9e bd 5b 5f a2 3d f9 f0 be bc
       -0.00837285 -0.07736628 0.07928344 -0.023308264
000270 2d 0d 97 3d 04 10 95 bd de 8d 01 bd cd 12 c4 3d
       0.0737556 -0.07278445 -0.031629436 0.095738985
000280 9e a5 c9 3c 77 02 13 bd 6d 41 e9 bb 18 45 13 3d
       0.024615105 -0.035891023 -0.007118395 0.035954565
000290 30 69 7a 3c e6 6e dd 3c ee 8d 95 3d e6 1d 46 bd
       0.015283868 0.02703042 0.073024616 -0.048368357
0002a0 bc d8 48 bd c0 29 b2 bd fc ef 27 3d 3f 68 a6 bd
       -0.04903482 -0.086993694 0.04100035 -0.08125352
0002b0 9b 09 f2 bc 3c 69 d1 3a 39 be 3c 3d 48 3f 8c bd
       -0.029545596 0.0015976797 0.046079848 -0.068480074
0002c0 8f e1 37 3d 6d 5c 94 3d 4c 60 e3 3d d4 34 4f bd
       0.044892844 0.07244191 0.111023515 -0.05058749
0002d0 47 87 40 3d d9 c7 e3 bd 5b c8 de bd c9 06 ab 3d
       0.04700401 -0.11122102 -0.108780585 0.083509035
0002e0 d8 72 9e bd eb 7c f8 bc 92 1c 8b 3d 1f 5d 83 bd
       -0.077367485 -0.030333003 0.06792559 -0.06414246
0002f0 32 f6 90 bd 2d 85 db bc 9d cb 15 bd 98 fb 18 bd
       -0.07078208 -0.026796902 -0.036571134 -0.037349313
000300 53 c9 9f 3d a3 3a 0e bd 24 94 89 3d 6c 67 8d 3d
       0.078020714 -0.03472389 0.06717709 0.06904492
000310 41 7e 25 3d 28 d2 5d 3d 09 ca eb 3b f5 35 a0 3d
       0.04040361 0.0541555 0.0071957153 0.078227915
000320 f3 09 fa 3c 57 70 8b 3d 11 8c 85 bd 58 b3 e2 3d
       0.030522322 0.068085365 -0.06520856 0.11069363
000330 fe 79 c3 3d 8d de 06 3d 92 76 fd 3c bc 73 2a 3d
       0.095447525 0.032927085 0.030940328 0.04161428
000340 61 18 56 3d 8d 1a 96 3c 71 50 d2 3d 21 15 8b bd
       0.052269343 0.018323207 0.10269249 -0.067911394
000350 d2 ff ac bd e0 4a bb bc 57 75 a1 bd 16 38 90 3c
       -0.08447231 -0.022862852 -0.07883709 0.017604869
000360 7a b3 41 3d 95 97 49 bd 1b fd 51 3d 40 72 ac 3d
       0.047290303 -0.049216826 0.05126677 0.08420229
000370 7f 26 8e bd 22 af b3 3d 1d d0 ce 3d 6a 6d a8 bd
       -0.06940936 0.08773638 0.10098288 -0.08223994
000380 6a 62 90 3c bf a4 e5 3c ba 84 b8 3d d1 fe 53 bd
       0.017625052 0.028032659 0.090096906 -0.051756684
000390 d5 f8 9f 3d 06 62 1f 3d 6f 18 87 3c 33 d7 9d bd
       0.07811133 0.03891184 0.016491143 -0.077070616
0003a0 de 22 8a bd ef fd 94 3b 34 13 33 3c 4f ec 17 bd
       -0.06744932 0.004546873 0.010929871 -0.037090596
0003b0 78 44 00 bc 28 c5 8a 3d ef f3 49 3c 82 3f 9f bd
       -0.007828824 0.06775886 0.012326225 -0.07775785
0003c0 d2 a5 6d bd e2 73 7d 3c 63 e0 ac bd b0 72 62 3d
       -0.058019467 0.015469523 -0.08441236 0.055285156
0003d0 72 77 6c 3d c8 3d 95 3d 33 1b db 3d 43 fc d2 bd
       0.0577311 0.072871745 0.10698547 -0.10302021
0003e0 24 a7 99 bd 6e bf 7c 3d cc 11 73 bc 2f 6b 3b 3d
       -0.07502583 0.061706 -0.014835786 0.045756515
0003f0 03 db 92 bd a0 95 6f bd 7b c3 ac 3d 40 93 a5 bd
       -0.071706794 -0.058492303 0.084357224 -0.08084726

fc.weight f4 [5, 100]
000000 9f 6c f0 bd da c0 0a be 0f 33 23 3d 6b 2e 3e 3d
       -0.11739468 -0.1355013 0.039843615 0.046430986
000010 f5 69 84 3d f8 46 8b 3d 35 7b 16 bd 58 35 ce 3d
       0.06465522 0.068006456 -0.036738593 0.10068768
000020 0b 60 c2 bd 5a 10 d1 3d ff e1 ee 3b ce b4 a5 3d
       -0.09490975 0.10208197 0.0072901244 0.080911264
000030 f1 37 02 be 17 aa 3a bd 21 7d 81 3d ff 71 0d 3e
       -0.12716652 -0.045572367 0.063226946 0.13813017
000040 2c 8b eb bb 1a 01 cc 3c 2b 34 92 3d 6f 63 41 3d
       -0.0071882214 0.024902869 0.071388565 0.047213968
000050 b0 a1 cd 3d 66 44 f3 3d 64 2d 52 3d 56 24 23 be
       0.10040605 0.1187828 0.05131282 -0.1593183
000060 b0 9a 7d bd b2 8e 77 3d 60 95 4e 3d e7 d6 ad 3c
       -0.0619151 0.06043882 0.050435424 0.021220637
000070 0c 75 16 3d 4a ed f6 bd 2b 96 ba bd c0 85 f8 3d
       0.03673272 -0.12056978 -0.091106735 0.12134886
000080 34 05 21 bd 77 a3 57 3c d4 3e 0d 3e 7a 51 06 3e
       -0.039311603 0.013161532 0.13793498 0.13117018
000090 ef 00 e8 3d f5 3f ed bd d1 2d d9 3d b6 d4 27 3d
       0.11328303 -0.115844645 0.10604442 0.04097434
0000a0 47 50 2e 3c 87 0c 54 bd 53 e5 a9 bd 6c bc cd bd
       0.010639257 -0.05176976 -0.08295693 -0.10045704
0000b0 44 3e 74 3b 03 d1 fb 3d ff d8 ae bd 75 dc 23 be
       0.0037268559 0.12295725 -0.085374825 -0.16002066
0000c0 0f 9a 2b 3b 71 f4 10 3e 62 3d 3b 3d 65 ce e1 bc
       0.0026184355 0.14155747 0.045712836 -0.027564237
0000d0 1b 82 d3 bb 82 c2 df 3d cb 3f 42 bc 0d 16 a8 3d
       -0.0064547188 0.10925771 -0.01185603 0.08207331
0000e0 d5 83 a3 bc c7 75 70 bd d2 b6 82 3d fc 3b e7 bd
       -0.019960323 -0.05870607 0.063825265 -0.11290738
0000f0 5c 2f da bd a7 ed f4 bc 99 92 c3 bd 7c 49 08 be
       -0.10653564 -0.029898478 -0.09549446 -0.13309282
000100 8d 78 04 3e 38 fc fd 3d b6 01 be 3c fd 73 85 bd
       0.12936611 0.124016225 0.023194175 -0.06516264
000110 23 46 ce 3c d3 97 57 3c 6f df 06 be ce f5 fd bd
       0.025179928 0.013158756 -0.1317117 -0.12400399
000120 02 5f 14 be 61 cb 64 bd 3f ff ed bb 38 ae 8d bd
       -0.14489368 -0.05585802 -0.0072630937 -0.06917995
000130 35 9d 96 3d 3f f5 fe bc 4a 6c c4 3d e9 71 fe 3d
       0.073542036 -0.031122802 0.09590967 0.124240704
000140 41 94 fb 3d 19 6e d4 bb f5 a8 e3 3d a2 74 8c bd
       0.122841366 -0.006482851 0.1111621 -0.068581834
000150 ae 5f 27 3e 2b ff ea bd 74 a1 22 3d 82 64 c8 bd
       0.16345093 -0.11474451 0.039704755 -0.09784795
000160 5c 92 9d 3d 46 00 f5 bd 7a 9a 88 bd 81 43 30 be
       0.076939315 -0.11962943 -0.06670089 -0.1721325
000170 b3 e1 79 bc 35 36 89 3d 85 af d7 bb 22 85 e2 bd
       -0.015251565 0.06699792 -0.006582203 -0.11060549
000180 11 c5 03 3e b2 ef cb 3d f7 13 2a 3d 23 28 02 3e
       0.12868144 0.09957828 0.041522946 0.12710623
000190 cb 83 0d be ca af c6 bd aa 3c fa 3d b0 ab 31 3d
       -0.13819806 -0.09701498 0.12218602 0.043376625
0001a0 59 25 d0 3d 94 2b 9a bc cd 4a 99 bd 0c 68 25 3e
       0.101633735 -0.018819608 -0.0748497 0.16152972
0001b0 d6 48 12 be 56 75 c4 bc 93 f0 74 bd 21 5e cb 3d
       -0.14285597 -0.023981731 -0.059799742 0.09930063
0001c0 32 92 8d 3c 58 d0 02 be e4 dc 7e 3d bf cd 13 3e
       0.017281625 -0.1277479 0.062222376 0.14433955
0001d0 29 03 c7 bd 6a 8e 08 3d 3b 72 75 3d 92 1b 90 3d
       -0.097173996 0.03333894 0.05992339 0.070365086
0001e0 1c 13 ee 3d 21 79 20 3d 73 ce 40 3d 5a 94 2a bd
       0.116247386 0.039178018 0.047071885 -0.041645385
0001f0 f0 93 d3 3c 21 7f 19 3e 0b d5 28 bd 7c e6 87 3d
       0.025827378 0.14989902 -0.0412188 0.06635758
000200 54 dd d4 bc e1 81 ea bd c2 51 8a 3d 64 c7 e6 3d
       -0.025984444 -0.11450554 0.06753875 0.112684995
000210 28 d1 f9 3d 84 77 0c be 68 99 71 3d 5d 00 c7 3b
       0.121980965 -0.13717467 0.05898419 0.0060730414
000220 d8 99 46 3d f3 15 1e be 51 b0 61 3d 20 e7 e3 3d
       0.04848656 -0.1543806 0.05509979 0.11128068
000230 08 72 1c be d2 34 b9 bd b2 bf fe bd 20 b8 b1 bc
       -0.15277874 -0.09043278 -0.12438907 -0.021694243
000240 c6 a3 d1 bd cd 13 23 3d a9 aa c7 bd 9b 29 22 bd
       -0.102363154 0.039813805 -0.09749348 -0.03959046
000250 9a f6 b4 3d 99 7e d4 3d 65 3d 96 3d ff b8 c0 bd
       0.08836098 0.10375709 0.07335929 -0.09410285
000260 1a 4b b8 bd 97 7e f8 3c 46 0d 69 3d 72 92 77 3c
       -0.089986995 0.0303338 0.056897424 0.015110599
000270 d4 18 8d bd 5c e5 59 3d 84 95 55 bd 4d 52 99 bc
       -0.06889501 0.05319725 -0.052144542 -0.018716002
000280 57 e2 6f bd fa 11 0c 3e 21 27 fa bc e0 5a 80 bd
       -0.058565464 0.13678733 -0.030536236 -0.06267333
000290 c1 41 aa 3d f1 82 30 3e 3b e3 04 3e 7b ec 17 be
       0.08313323 0.1723745 0.12977307 -0.14836304
0002a0 58 4b a3 3d 8a 9d 62 3c bc c3 a5 bd 80 a1 4c bb
       0.07973355 0.013831506 -0.08093974 -0.0031224191
0002b0 52 ca 6a bd bb 77 6e bd 0b 02 3d 3c 1b dc 9e bd
       -0.057321854 -0.058219653 0.011536132 -0.077568255
0002c0 95 e0 80 3d e2 67 8f 3d 16 5d 9d 3d f5 c4 08 3e
       0.062928356 0.07002236 0.0768377 0.13356383
0002d0 3b 8f 22 3e b7 7e f6 bc 4d db e1 3c 5f 25 8d ba
       0.1587495 -0.03008972 0.027570391 -0.0010768584
0002e0 c1 dc b9 3d c8 9d 70 bd 82 5d 29 3e 16 e4 09 be
       0.090753086 -0.058744222 0.16539577 -0.13465914
0002f0 81 e5 09 3e b9 14 cc bd ab dd 93 bc b1 b2 41 be
       0.13466455 -0.0996489 -0.018050035 -0.18915822
000300 02 22 1a bd 1c b1 08 3e f3 b1 a4 bd c3 06 77 bd
       -0.03763009 0.13348812 -0.080417536 -0.060309183
000310 7f ca b1 3c 9b ae 10 3e 84 e3 eb 3d 99 18 e2 3c
       0.021703003 0.14129107 0.115180045 0.02759962
000320 fa 9f 2a be 18 04 5c bd 81 09 44 3c a4 2f a3 bd
       -0.16662589 -0.05371484 0.0119651565 -0.07968071
000330 ee fe 1c 3e 7f 12 1f 3e 07 67 0e be 30 36 23 3c
       0.15331623 0.155344 -0.1390649 0.00996165
000340 f3 96 d2 bc e2 2d 93 3d 7f a6 ad bd 2b 01 f4 3c
       -0.025706744 0.07186486 -0.08479022 0.029785713
000350 a8 e5 9b bd 6a 4f cf bd d2 32 16 3e 02 83 eb 3d
       -0.07612163 -0.10122569 0.14667824 0.11499597
000360 5f b2 0d 3d 07 cf e4 3c 3f 1d 9c bc 7d 06 ee 3d
       0.034593936 0.02793075 -0.019056914 0.11622331
000370 dd bc 4d 3d 48 dc 95 3d 06 7d a4 bd e6 28 32 be
       0.050228942 0.07317406 -0.08031659 -0.17398414
000380 37 ee 08 be b5 96 fe 3d de 50 e4 bd 22 fb ae 3c
       -0.13372122 0.12431089 -0.11148237 0.021359984
000390 a0 e7 a3 bd e0 15 75 3c 03 7e 2c bd 76 f1 de 3d
       -0.08003163 0.014958829 -0.04211236 0.10885899
0003a0 82 80 ef 3d 54 e8 df bd 30 82 2c 3e 82 62 2d bc
       0.11694433 -0.10932985 0.16846538 -0.010582568
0003b0 47 93 1f bd 14 6b 47 bd c8 86 af 3d 97 cf 4c 3d
       -0.038958814 -0.048686102 0.08570629 0.05000266
0003c0 20 60 22 be e8 c1 9a bd 1b b4 ff bc 9a 9c 6d bd
       -0.15856981 -0.07556516 -0.03121381 -0.058010675
0003d0 16 8b 1c 3d 3b 45 c2 3d 49 e4 ea bc 99 ea 42 bd
       0.03821858 0.09485861 -0.028673308 -0.04758701
0003e0 d6 2d 04 bd 50 a5 1e 3e 9f 69 29 3d 67 6d 84 bd
       -0.032270275 0.15492749 0.041360494 -0.06466179
0003f0 0a 63 fa bd ef e7 e6 3d 03 7d 80 bc 7f 94 e2 3d
       -0.122259215 0.112747066 -0.01568461 0.1106348

fc.bias f4 [5]
000000 42 4a c7 bb 5c d7 31 3c 2e 5a 7a 3c 87 04 a9 bd
       -0.0060818503 0.010854568 0.01528029 -0.08252817
000010 54 69 72 bc
       -0.01479562
