checkpoints/lstm_with_output.pt (torch, 175315 bytes, 6 tensors)

rnn.weight_ih_l0 f4 [400, 5]
-0.005355214 -0.051217537 -0.045253575 -0.009999648 -0.043645058 -0.01845326 0.08258183 -0.056872442
-0.026182473 -0.0048179817 -0.0040559676 0.012305808 -0.082790576 0.047266 0.1239927 -0.08549215
-0.0110777775 -0.07470751 0.04930622 0.025224363 -0.03729424 -0.0045435196 -0.025132224 0.04937865
-0.0737533 0.06151134 0.049131963 -0.0052910605 0.06293957 0.119588055 -0.04233422 -0.06604073
-0.020678448 -0.013725187 0.033588536 0.07044634 -0.04107075 0.075953275 0.034826297 -0.022477292
-0.026307834 -0.012110695 0.04014408 0.041520793 0.12207306 -0.109760836 -0.03487351 0.06332027
-0.003964393 -0.022554886 -0.10231051 0.07585725 -0.011238216 0.08144892 0.002948901 0.02085764
0.031682305 0.10170157 0.07233699 0.06061334 0.049873043 0.082708865 -0.10848721 -0.10605211
-0.1824737 -0.019680152 0.10444376 0.04634197 -0.013807291 0.0872853 -0.098367386 -0.0075669307
-0.023346877 -0.018749218 0.09762712 -0.0325013 0.036780864 -0.025469063 0.013292946 -0.111296676
-0.10887495 -0.022992654 0.021102155 -0.08277288 -0.19675578 0.020524697 0.024677215 -0.0059416206
0.002746557 0.0741009 0.015908131 0.08427675 0.14893177 0.09757405 0.041459262 -0.031132502
0.030857962 -0.13789701 0.010161304 0.009413096 0.06457353 0.077844165 0.07030359 -0.06749637
-0.054952048 -0.038683847 0.05324578 0.027824664 -0.06157862 0.057247914 -0.091823615 -0.07758717
0.04347903 0.061104417 -0.017865578 0.12581435 0.03804573 0.09219802 0.13617802 -0.050041523
-0.034049444 0.0055116885 0.019311758 -0.018002182 0.06555588 -0.091138124 -0.014188049 -0.055761207
-0.090363756 -0.038245145 -0.059403684 0.100024775 0.0689651 0.031679388 -0.10050754 -0.02003909
0.00412757 0.028008822 0.06406372 -0.0027701918 -0.011046007 -0.07654433 -0.008326187 0.04110555
-0.004094709 0.059793517 0.07118424 -0.08094559 -0.10434767 0.09529688 -0.06343037 -0.111562766
-0.09497534 0.04086337 0.07798043 -0.059444245 -0.06137061 -0.087669216 -0.14156193 0.13792337
-0.022284579 -0.02612015 -0.0066738296 0.032091122 0.033153493 0.00472036 -0.014682064 0.034589168
-0.07059712 -0.05862056 0.046345152 -0.07752321 -0.08361454 -0.011231713 -0.14196014 -0.19745736
-0.14923196 -0.13210085 -0.09051301 -0.07812377 -0.012567421 -0.05484004 -0.036291536 -0.08096358
-0.036758494 -0.09648686 0.06363409 -0.040178966 0.06496731 -0.039598595 -0.10489535 -0.119841315
-0.05689446 0.018460834 -0.062166896 -0.14240262 0.007384258 -0.044490345 -0.09139417 0.051592812
0.04175476 0.06913379 0.0019639735 -0.08759379 0.007759401 0.057424955 -0.066071875 -0.006222123
-0.03218964 -0.04383074 0.017137963 0.053497512 0.011206343 0.07028274 0.11246229 -0.0035354118
0.052338917 0.00012381811 -0.004532274 0.03341789 0.01284581 0.03877372 -0.03233923 -0.09301033
-0.021316359 -0.1010268 -0.059858426 -0.012886553 -0.025892433 0.026861986 0.010921919 -0.055277966
-0.005711965 -0.04135886 0.09900785 -0.009061495 -0.04983844 0.010390145 0.02586345 0.11483556
-0.027453648 0.045220315 0.05479047 -0.058259528 0.026732253 0.09372036 0.07708742 -0.0070389668
-0.05789157 -0.03296315 -0.08998467 0.06550193 0.024622662 0.0023439866 -0.110824175 -0.118891336
00000000: ca7a afbb 7bc9 51bd d05b 39bd 90d5 23bc
00000010: 29c5 32bd 4b2b 97bc aa20 a93d 14f3 68bd
00000020: a07c d6bc 29e0 9dbb ece7 84bb 4d9e 493c
00000030: 1b8e a9bd fe99 413d e2ef fd3d 8216 afbd
00000040: 917f 35bc 4000 99bd 52f5 493d 53a3 ce3c
00000050: d8c1 18bd cee1 94bb 18e2 cdbc 4441 4a3d
00000060: f80b 97bd 51f3 7b3d 993e 493d a260 adbb
00000070: 76e6 803d 95ea f43d a666 2dbd 5d40 87bd
00000080: d965 a9bc 9bdf 60bc 2294 093d 2c46 903d
00000090: ce39 28bd 648d 9b3d 05a6 0e3d 4c22 b8bc
000000a0: 8783 d7bc f06b 46bc 1e6e 243d b511 2a3d
000000b0: 7101 fa3d 4aca e0bd 87d7 0ebd 0fae 813d
000000c0: bde7 81bb 06c5 b8bc 2c88 d1bd 0c5b 9b3d
000000d0: 7f20 38bc b1ce a63d 5942 413b a4dd aa3c
000000e0: 4ec5 013d ea48 d03d 6a25 943d b245 783d
000000f0: ad47 4c3d 4463 a93d 8b2e debd d931 d9bd
00000100: 63da 3abe 4538 a1bc 9ce6 d53d 14d1 3d3d
00000110: fa37 62bc a3c2 b23d d774 c9bd 04f4 f7bb
00000120: f341 bfbc f697 99bc baf0 c73d 1520 05bd
00000130: 88a7 163d 7fa4 d0bc a8ca 593c 83ef e3bd
00000140: d4f9 debd 175b bcbc 6dde ac3c d484 a9bd
00000150: 597a 49be 6923 a83c df27 ca3c edb1 c2bb
00000160: 94ff 333b 36c2 973d c551 823c 4a99 ac3d
00000170: 9281 183e e7d4 c73d 30d1 293d 9709 ffbc
00000180: d6c9 fc3c e034 0dbe 997b 263c 6339 1a3c
00000190: 203f 843d c36c 9f3d 54fb 8f3d 893b 8abd
000001a0: 6615 61bd f472 1ebd 3f18 5a3d 8df0 e33c
000001b0: dd39 7cbd ca7c 6a3d 050e bcbd 06e6 9ebd
000001c0: 1117 323d a048 7a3d d55a 92bc 7ad5 003e
000001d0: d7d5 1b3d 51d2 bc3d 4072 0b3e 57f8 4cbd
000001e0: 6e77 0bbd 659b b43b b133 9e3c 5079 93bc
000001f0: 2942 863d a0a6 babd fe74 68bc dd65 64bd
00000200: a210 b9bd f1a6 1cbd 4751 73bd cad9 cc3d
00000210: 933d 8d3d 3fc2 013d e6d6 cdbd 0529 a4bc
00000220: 9140 873b c272 e53c d733 833d 1b8c 35bb
00000230: 50fa 34bc 46c3 9cbd 8f6a 08bc 4b5e 283d
00000240: e92c 86bb 0cea 743d 0bc9 913d cdc6 a5bd
00000250: 3bb4 d5bd 032b c33d c8e7 81bd 057b e4bd
00000260: 6e82 c2bd 5960 273d 34b4 9f3d cf7b 73bd
00000270: c05f 7bbd eb8b b3bd 9cf5 10be c93b 0d3e
00000280: 268e b6bc edf9 d5bc 24b0 dabb fb71 033d
00000290: f5cb 073d 40ad 9a3b 0a8d 70bc 5fad 0d3d
000002a0: 3995 90bd 1d1c 70bd 6ad4 3d3d 7dc4 9ebd
000002b0: 1a3e abbd 3805 38bc 005e 11be 4332 4abe
000002c0: 43d0 18be 7245 07be e35e b9bd 5bff 9fbd
000002d0: 96e7 4dbc f39f 60bd 6fa6 14bd 3cd0 a5bd
000002e0: 1390 16bd e79a c5bd 9752 823d b392 24bd
000002f0: 950d 853d 2332 22bd 60d3 d6bd 5d6f f5bd
00000300: 2a0a 69bd 2d3b 973c b7a2 7ebd fed1 11be
00000310: a5f7 f13b 823b 36bd de2c bbbd fc52 533d
00000320: 0a07 2b3d 0496 8d3d 02b6 003b 5f64 b3bd
00000330: 9342 fe3b 6e36 6b3d b150 87bd f3e2 cbbb
00000340: 49d9 03bd dd87 33bd ea64 8c3c 3520 5b3d
00000350: cf9a 373c 66f0 8f3d a152 e63d 5eb2 67bb
00000360: 5561 563d 2cd5 0139 7883 94bb 33e1 083d
00000370: 3b77 523c 31d1 1e3d 2476 04bd 337c bebd
00000380: a59f aebc 24e7 cebd 1c2e 75bd 1f22 53bc
00000390: 5e1c d4bc ab0d dc3c d9f1 323c 266b 62bd
000003a0: 6f2b bbbb e867 29bd a1c4 ca3d aa76 14bc
000003b0: 6423 4cbd 6d3b 2a3c 96df d33c e82e eb3d
000003c0: 79e6 e0bc f038 393d f96b 603d 8ba1 6ebd
000003d0: 99fd da3c 76f0 bf3d 02e0 9d3d 22a7 e6bb
000003e0: b61f 6dbd 5e04 07bd e249 b8bd e025 863d
000003f0: 77b5 c93c 929d 193b c9f7 e2bd 4d7d f3bd

rnn.weight_hh_l0 f4 [400, 100]
-0.028237566 0.08579402 0.038139854 -0.08954915 0.081262894 -0.048419535 0.07706793 -0.0560174
-0.020750912 -0.058697958 0.05886163 0.113291025 -0.0717557 -0.09566997 -0.033642445 -0.03172771
0.008480867 0.099957615 0.012068799 -0.07771084 -0.002721781 0.01029495 0.072674215 -0.08657135
0.061240103 -0.01448458 0.022291709 0.123098314 -0.08943352 0.009031469 -0.06063179 -0.03523871
-0.0100834165 0.07900109 0.043792292 -0.09461719 -0.055280786 0.005313025 0.054644566 -0.07374837
-0.085114695 -0.08461669 -0.03328675 -0.054219782 0.055531673 0.06161411 -0.02179386 0.05898347
-0.05412669 -0.05375818 -0.018009786 0.0699774 0.11383285 0.021436395 -0.10135196 -0.04501372
0.015458385 0.0019983386 -0.13727298 -0.044289637 -0.03186374 0.022757752 -0.078099266 0.08218201
-0.011357256 0.09193867 0.04390358 -0.031514082 0.005184561 0.068088785 -0.028801786 0.026464598
-0.053874463 -0.09760222 -0.06012333 -0.110154696 -0.091602966 0.050003026 0.009064181 0.03785053
0.08893527 0.0072787623 -0.042649314 -0.08600011 0.019401696 0.017547715 -0.0059989737 0.073544264
-0.025315683 0.051865168 -0.023645232 0.04612662 0.05603691 -0.028084984 0.06098027 0.119578525
0.030277226 0.013595356 -0.011621532 0.085162036 0.08001696 0.059705473 0.04673361 -0.0021715066
-0.06496294 -0.03668488 0.030423522 -0.019612951 -0.028534641 0.057193417 0.05148073 0.05131145
0.04036836 -0.09613436 -0.027806913 0.016296642 0.094612464 0.06603344 0.06636177 -0.069243886
0.08818857 0.0027677426 0.046898257 -0.051312286 0.07575006 -0.05453623 0.022998577 -0.066549964
0.07751814 0.03769604 -0.061725408 0.028861657 -0.020381382 0.070364326 -0.049319483 0.0016219399
0.035773966 0.08129939 -0.048267365 -0.0025835948 -0.08015508 0.02438488 0.010752952 -0.03556291
-0.05797796 -0.02376158 0.05582089 -0.039842915 0.039525963 -0.044860788 -0.034548756 0.058409397
0.016729569 -0.10579468 0.07950611 0.038015842 -0.036395583 -0.08906508 0.022755923 -0.08460595
0.008053643 -0.03059112 0.049210753 0.043501712 0.04971091 -0.017180704 0.015387126 0.005222626
-0.069223955 -0.08873307 0.06676245 0.080664575 0.026372649 -0.07010395 -0.07976856 0.0013388089
0.023902131 -0.1004575 -0.03896583 -0.070369095 -0.035568025 0.055699825 0.088764936 0.07617001
0.069206335 0.07455026 0.030023538 0.06796276 0.005943149 -0.0677498 -0.066843785 0.07467229
-0.05822597 -0.037328213 -0.033848796 -0.07807496 -0.032922108 0.027034972 0.022105196 0.10472553
0.10470498 -0.012446692 -0.047593646 -0.055454623 -0.037248027 -0.017276017 0.021017572 0.081201635
0.014540612 0.013136712 0.0024570716 0.1408392 0.0648142 0.0462851 0.01833577 0.08429309
0.06828409 0.087666966 0.012042326 -0.0861979 0.01676108 0.06495544 0.0698473 -0.15155257
-0.015431194 0.04223655 0.020428805 0.022184921 -0.03564673 0.010037031 0.13156074 0.07245334
0.061587933 -0.10264045 0.09637662 -0.056355696 -0.0037685412 0.10458339 0.074183024 0.11369017
0.08912412 0.03470987 0.067037925 -0.085379444 0.021218672 -0.022058075 -0.040310793 -0.04053518
-0.11750496 -0.038164817 -0.03891808 -0.021675697 0.107852 0.046255916 0.004001448 0.025659617
00000000: 7852 e7bc c6b4 af3d 8938 1c3d 8b65 b7bd
00000010: 296d a63d 9053 46bd cad5 9d3d 8072 65bd
00000020: d1fd a9bc 456d 70bd e418 713d 2005 e83d
00000030: a7f4 92bd 9eee c3bd a9cc 09bd eaf4 01bd
00000040: 56f3 0a3c 94b6 cc3d 36bc 453c dc26 9fbd
00000050: e85f 32bb 26ac 283c 38d6 943d 524c b1bd
00000060: e7d6 7a3d bb50 6dbc 1a9d b63c f81a fc3d
00000070: ec28 b7bd baf8 133c 0a59 78bd 7756 10bd
00000080: ea34 25bc 53cb a13d 8c5f 333d a8c6 c1bd
00000090: 1b6e 62bd e218 ae3b fbd2 5f3d 6309 97bd
000000a0: 9d50 aebd 844b adbd b057 08bd 9015 5ebd
000000b0: 2e75 633d 145f 7c3d 0989 b2bc a798 713d
000000c0: f3b3 5dbd 8a31 5cbd 4289 93bc 5050 8f3d
000000d0: 3221 e93d 619b af3c 9e91 cfbd 4e60 38bd
000000e0: 2b45 7d3c 8ff6 023b 4a91 0cbe 0d69 35bd
000000f0: 8e83 02bd 776e ba3c 82f2 9fbd 0b4f a83d
00000100: c913 3abc 574a bc3d 3ed4 333d e914 01bd
00000110: 40e3 a93b 2272 8b3d b9f1 ebbc 49cc d83c
00000120: 78ab 5cbd ace3 c7bd e243 76bd c998 e1bd
00000130: 569a bbbd f9cf 4c3d ee81 143c 2809 1b3d
00000140: b223 b63d af82 ee3b 0cb1 2ebd d320 b0bd
00000150: 4ef0 9e3c 3ac0 8f3c 0a93 c4bb 609e 963d
00000160: d662 cfbc 9270 543d a5b3 c1bc 44ef 3c3d
00000170: f586 653d 7b12 e6bc 73c6 793d 96e5 f43d
00000180: f207 f83c 0ebf 5e3c 3d68 3ebc 6f69 ae3d
00000190: efdf a33d ba8d 743d be6b 3f3d d64f 0ebb
000001a0: 4a0b 85bd e242 16bd c03a f93c 57ab a0bc
000001b0: 7bc1 e9bc a543 6a3d 75dd 523d f42b 523d
000001c0: 4b59 253d 17e2 c4bd 53cb e3bc 8980 853c
000001d0: 2ec4 c13d 8a3c 873d aee8 873d bdcf 8dbd
000001e0: 369c b43d 0463 353b 6318 403d d52c 52bd
000001f0: d922 9b3d 6261 5fbd 8367 bc3c 594b 88bd
00000200: d5c1 9e3d 2a67 1a3d c8d3 7cbd 486f ec3c
00000210: dbf6 a6bc 2c1b 903d 3a03 4abd 4697 d43a
00000220: b987 123d 4b80 a63d 00b4 45bd 8751 29bb
00000230: 5928 a4bd cdc2 c73c 262d 303c 6aaa 11bd
00000240: 4c7a 6dbd a5a7 c2bc 72a4 643d 5332 23bd
00000250: fae5 213d f2bf 37bd ff82 0dbd b13e 6f3d
00000260: 730c 893c e2aa d8bd 19d4 a23d 80b6 1b3d
00000270: 8913 15bd c167 b6bd a16a ba3c e245 adbd
00000280: 6df3 033c 3a9a fabc 3791 493d da2e 323d
00000290: ab9d 4b3d 8cbe 8cbc 491a 7c3c 9022 ab3b
000002a0: 4ac5 8dbd afb9 b5bd c0ba 883d 7833 a53d
000002b0: 740b d83c a992 8fbd b35d a3bd f97a af3a
000002c0: 67ce c33c a9bc cdbd a29a 1fbd ac1d 90bd
000002d0: c7af 11bd 8025 643d 64ca b53d 06ff 9b3d
000002e0: 0dbc 8d3d cfad 983d ecf3 f53c 0f30 8b3d
000002f0: bfbe c23b 68c0 8abd 65e5 88bd c9ed 983d
00000300: 5b7e 6ebd 78e5 18bd 09a5 0abd c4e5 9fbd
00000310: 55d9 06bd 7278 dd3c f515 b53c 577a d63d
00000320: 916f d63d 36ed 4bbc 8ef1 42bd 6324 63bd
00000330: 6391 18bd 6f86 8dbc 0b2d ac3c 0b4d a63d
00000340: bf3b 6e3c 5d3b 573c d206 213b 2738 103e
00000350: 4fbd 843d 7295 3d3d e634 963c dba1 ac3d
00000360: 87d8 8b3d bd8a b33d 2d4d 453c 8688 b0bd
00000370: 884e 893c 5c07 853d 1a0c 8f3d 9930 1bbe
00000380: 1ed3 7cbc 3c00 2d3d 4f5a a73c 27bd b53c
00000390: 4e02 12bd 5c72 243c dcb7 063e 6b62 943d
000003a0: a143 7c3d 2835 d2bd 1b61 c53d 3bd5 66bd
000003b0: a1f9 76bb d12f d63d 45ed 973d 64d6 e83d
000003c0: b586 b63d f02b 0e3d 2e4b 893d 6bdb aebd
000003d0: c8d2 ad3c 23b3 b4bc ee1c 25bd 3808 26bd
000003e0: 71a6 f0bd b652 1cbd 9168 1fbd 3b91 b1bc
000003f0: 82e1 dc3d d876 3d3d 941e 833b 1e34 d23c

rnn.bias_ih_l0 f4 [400]
-0.03184333 0.08058654 0.061968107 -0.01830401 0.08726646 -0.047272988 -0.028139489 0.06372149
0.012696203 0.12437623 -0.023320409 -0.032387834 0.05896827 0.067678414 0.050457574 0.11234771
0.06405221 -0.036499485 -0.08156982 -0.04745826 0.0772715 0.03136586 -0.023044875 -0.031941064
-0.021487243 -0.06475957 0.12718856 0.05693733 0.008412401 -0.0501484 0.0320443 0.13876405
0.035798445 0.0904627 0.007963049 0.091747075 -0.004739443 -0.016730076 0.07444602 -0.06342064
0.10438897 0.019149017 0.03648734 0.04645025 0.07369261 0.09812391 0.36054376 0.11679053
-0.06744443 -0.06079653 0.01744669 -0.054202534 0.13433257 0.13539748 0.10813284 0.030187437
0.090842344 -0.029769622 -0.054121695 0.14964315 0.12772645 0.12668537 0.060426317 -0.055769604
0.142214 -0.03530146 0.09572832 0.030747944 -0.007768913 0.12231352 -0.016694719 0.012143198
0.020311004 -0.045856297 0.116336994 0.09581258 0.026594078 0.08676948 0.079216495 0.025261318
0.03769294 -0.048140846 -0.04455287 -0.06497034 0.09180757 -0.050560873 -0.057762217 0.17090023
0.03486731 -0.005430443 -0.0489015 0.041571327 -0.012704905 -0.009899145 0.28964806 0.013766858
-0.051172484 -0.05129249 0.21717641 0.12452184 0.011760113 0.08556434 0.03851557 -0.0054169483
-0.066425405 0.086875685 0.10221693 0.03356763 -0.04197865 -0.014949197 0.05580375 0.004444633
0.08718363 0.05078521 -0.03056439 0.10453199 -0.014632237 -0.025967972 0.07384715 0.097706944
0.040185463 -0.081980586 0.10584428 -0.0036575436 -0.050051294 -0.055294514 0.03246117 0.08231008
-0.03150228 0.09373409 -0.016856363 -0.027016275 0.061231073 0.03817565 0.03655823 0.06805055
0.07898793 -0.08674196 0.026592657 -0.056107562 -0.03974414 0.03187407 -0.06926729 -0.03497891
-0.013716253 0.020629613 -0.029155288 -0.07331548 -0.07358062 0.042403195 0.06251132 -0.07960034
0.054595944 0.07353561 0.060302738 0.05332513 0.022238627 0.06446131 -0.046193957 -0.04312344
0.012025295 -0.0518853 -0.026030209 -0.037232537 -0.0756351 -0.0071465657 -0.04509848 -0.098765105
-0.053313926 -0.031623557 0.0047807805 -0.04244813 0.10165972 -0.07467263 -0.011212778 -0.0105924485
0.056212757 -0.04754851 -0.06532206 -0.005656478 0.0028888823 -0.029233476 -0.07310118 0.059250113
0.1006743 0.0919073 -0.08211864 0.07946351 0.05048535 -0.052103236 -0.087465 0.069301255
-0.08089315 -0.07831205 -0.07038511 0.0049445736 -0.06469801 0.08437397 -0.015745744 0.03685512
-0.010610437 -0.076777995 0.0038891004 0.022786785 0.07201502 -0.030433828 0.08519066 0.029985713
-0.036973104 -0.0073409243 0.07179877 0.026055407 0.0443717 -0.05822058 -0.05199088 0.065391615
0.058546223 0.10123049 -0.08182562 -0.10269822 0.05808426 -0.08948359 -0.018262936 -0.0732675
0.028871635 0.1126409 0.014223608 0.0722242 -0.028209848 0.097690165 0.023720458 0.10373084
-0.051582724 -0.077954054 0.0167213 -0.07469646 0.04345841 0.005545618 0.060316965 0.031963985
-0.07639962 -0.09614262 0.08252372 -0.08194848 0.06366534 -0.04360734 0.0101301735 0.07090765
0.02410398 -0.06779717 -0.0701648 0.02737877 0.06382844 -0.03718773 -0.029888676 -0.09797635
00000000: 276e 02bd 8e0a a53d 45d2 7d3d 4bf2 95bc
00000010: c2b8 b23d 52a1 41bd c984 e6bc 6a80 823d
00000020: bc03 503c f7b8 fe3d 710a bfbc 1ba9 04bd
00000030: b688 713d fb9a 8a3d 9aac 4e3d 8e16 e63d
00000040: ce2d 833d 7c80 15bd 140e a7bd 9863 42bd
00000050: 8540 9e3d 7d79 003d 9bc8 bcbc a2d4 02bd
00000060: 0406 b0bc aaa0 84bd b83d 023e 1e37 693d
00000070: 2bd4 093c 6968 4dbd e240 033d 2a18 0e3e
00000080: 64a1 123d 8244 b93d 7377 023c e4e5 bb3d
00000090: 544d 9bbb 830d 89bc 2877 983d aee2 81bd
000000a0: e2c9 d53d 66de 9c3c c073 153d 9e42 3e3d
000000b0: 27ec 963d 30f5 c83d 3199 b83e e02f ef3d
000000c0: 4e20 8abd c805 79bd 5cec 8e3c 7a03 5ebd
000000d0: 7a8e 093e a3a5 0a3e c074 dd3d a54b f73c
000000e0: 8d0b ba3d 6cdf f3bc b6ae 5dbd 0e3c 193e
000000f0: b9ca 023e cfb9 013e 9681 773d ab6e 64bd
00000100: 8ca0 113e 4498 10bd 360d c43d 1de3 fb3c
00000110: 5e92 febb 837f fa3d 5dc3 88bc 44f4 463c
00000120: 4363 a63c d0d3 3bbd 1742 ee3d 6339 c43d
00000130: d3db d93c 32b4 b13d 423c a23d d3f0 ce3c
00000140: ea63 1a3d 562f 45bd 127d 36bd 2b0f 85bd
00000150: 9b05 bc3d eb18 4fbd 1398 6cbd 7800 2f3e
00000160: 06d1 0e3d dcf1 b1bb f04c 48bd b246 2a3d
00000170: 3c28 50bc 0630 22bc c04c 943e 638e 613c
00000180: 3d9a 51bd 1318 52bd 7e63 5e3e 4e05 ff3d
00000190: 7dad 403c 5b3c af3d 81c2 1d3d a880 b1bb
000001a0: 0b0a 88bd e1eb b13d 1c57 d13d 367e 093d
000001b0: cef1 2bbd 7aed 74bc 7992 643d 49a4 913b
000001c0: 558d b23d 2704 503d 2c62 fabc de14 d63d
000001d0: 0dbc 6fbc c9ba d4bc 2d3d 973d 941a c83d
000001e0: 8399 243d 70e5 a7bd e3c4 d83d 66b3 6fbb
000001f0: 9602 4dbd 807c 62bd 01f6 043d 3092 a83d
00000200: 8908 01bd a9f7 bf3d 5b16 8abc 3c51 ddbc
00000210: 6fcd 7a3d 125e 1c3d 15be 153d 165e 8b3d
00000220: 6dc4 a13d c5a5 b1bd d8d8 d93c 0bd1 65bd
00000230: c0ca 22bd 638e 023d 02dc 8dbd 0c46 0fbd
00000240: 23ba 60bc 6fff a83c 12d7 eebc 6d26 96bd
00000250: 70b1 96bd f9ae 2d3d ef05 803d 8105 a3bd
00000260: ff9f 5f3d d799 963d 0100 773d 746b 5a3d
00000270: c82d b63c 4b04 843d e035 3dbd 34a2 30bd
00000280: be05 453c ae85 54bd 4e3d d5bc 2581 18bd
00000290: 93e6 9abd bd2d eabb 2fb9 38bd 5c45 cabd
000002a0: b45f 5abd b487 01bd 18a8 9c3b 17de 2dbd
000002b0: f932 d03d f7ed 98bd cdb5 37bc f38b 2dbc
000002c0: 593f 663d 3ac2 42bd 92c7 85bd fa59 b9bb
000002d0: 6753 3d3b 0b7b efbc 12b6 95bd 3fb0 723d
000002e0: 542e ce3d e539 bc3d d12d a8bd c4bd a23d
000002f0: bac9 4e3d 346a 55bd da20 b3bd d1ed 8d3d
00000300: 4fab a5bd 1162 a0bd 1226 90bd 1706 a23b
00000310: 6480 84bd 43cc ac3d 38fd 80bc 65f5 163d
00000320: 66d7 2dbc c83d 9dbd 47e0 7e3b 5aab ba3c
00000330: 9c7c 933d 5d50 f9bc 7178 ae3d 99a4 f53c
00000340: 1c71 17bd 238c f0bb 3c0b 933d 2672 d53c
00000350: 1abf 353d b478 6ebd 64f4 54bd 0aec 853d
00000360: 2ace 6f3d ee51 cf3d 3194 a7bd 7253 d2bd
00000370: c3e9 6d3d 2c43 b7bd 279c 95bc 450d 96bd
00000380: 3584 ec3c 46b0 e63d 230a 693c 48ea 933d
00000390: 5718 e7bc c811 c83d 6851 c23c d670 d43d
000003a0: 6848 53bd 60a6 9fbd 1cfb 883c 75fa 98bd
000003b0: 7201 323d 04b8 b53b ec0e 773d abec 023d
000003c0: 6777 9cbd 6ce6 c4bd 3202 a93d 9bd4 a7bd
000003d0: f962 823d 9c9d 32bd 07f9 253c 0838 913d
000003e0: b675 c53c 3ed9 8abd 90b2 8fbd 7149 e03c
000003f0: 7cb8 823d 2952 18bd 19d9 f4bc d3a7 c8bd

rnn.bias_hh_l0 f4 [400]
0.10051594 0.006594927 0.11122253 0.11754833 -0.0032479796 0.09355552 -0.065900475 0.07878737
0.10566564 0.0027835246 0.076086946 -0.0054940097 0.11993123 0.12679553 0.073582314 0.086536594
0.072558604 0.023287173 0.011842839 -0.015738772 0.044684503 0.051781964 0.15943481 -0.026256986
0.13345453 -0.036436953 -0.031019926 0.06294559 0.012704701 0.030289892 0.1369848 0.019706773
0.0277084 0.09358728 0.040052306 -0.042523883 -0.0062474934 0.10971488 -0.07388345 0.024274804
0.01705094 0.03356732 0.015686408 0.08518135 0.026164569 0.11161182 0.35527056 0.041516185
-0.07679597 0.106600195 0.13082746 0.057838257 0.12924579 0.06604843 -0.0432273 0.030916136
0.07571122 0.016038613 0.08953911 0.018440159 0.1507357 -0.06437638 -0.043428224 -0.074353516
0.085082695 -0.03748494 0.08058529 0.09667906 0.09723288 0.072625354 -0.05158877 0.06812601
0.01404739 -0.039755594 -0.04051543 -0.078397796 0.13812329 -0.05125178 0.03014482 -0.05549556
0.16406865 -0.03091395 0.11424541 -0.003667619 0.053148326 0.11340196 0.067534216 0.014189119
0.09285742 -0.020962067 -0.049332738 0.0034135226 0.021816114 0.08670169 0.28951567 0.04374465
-0.03786375 0.0520862 0.069399424 -0.019013546 -0.068955675 -0.0061027133 -0.0047802427 -0.06062342
0.0040983823 -0.07271481 0.05197573 0.043933608 0.07611138 0.065962255 -0.01380192 -0.037446465
-0.09397335 0.081452064 0.031518742 0.060390953 -0.047874324 -0.053929057 -0.06400273 0.08902892
-0.032586757 0.013610106 0.1107239 -0.0062445477 0.08846343 -0.012133773 0.09592328 -0.09029358
-0.052233044 0.002090568 0.06203002 0.08419311 -0.027542848 0.037372813 0.09800471 0.055270087
0.022206793 0.061048802 -0.019112544 0.08448704 -0.0438227 0.07866415 0.033307277 -0.07868075
-0.0049491776 -0.037300777 -0.08762905 0.06639359 0.0890821 0.01816233 0.0087854415 -0.062481683
-0.012716193 0.02426998 0.053538367 -5.2876963e-05 -0.042575005 0.056671042 0.023155905 0.015069697
-0.110262245 -0.08329814 0.010349774 -3.52226e-05 -0.020327358 0.03168067 -0.051013406 -0.086358346
0.08391734 -0.09176188 -0.018259894 -0.050369944 -0.029198334 0.058085978 0.039415833 -0.057017565
0.10214253 -0.02988406 -0.044116706 0.004661448 0.094188675 -0.016058147 -0.06337251 0.09351133
0.04719149 0.013263114 -0.07881522 0.020530675 0.059236854 0.056116957 0.04748911 0.07545969
-0.0029153726 0.058016602 -0.07200032 -0.058388535 0.072749734 -0.008747337 0.08571827 -0.046510596
0.045029357 -0.022909975 -0.025727622 -0.06873698 0.057112485 -0.011714549 -0.024050685 -0.007674778
-0.06778302 0.042082213 -0.040460456 0.0626599 0.06507856 -0.028501509 -0.04471716 0.066324905
0.057378568 0.08796704 -0.086030565 -0.037351813 0.06554079 0.037989147 -0.06912502 -0.00828602
0.08972846 0.07051025 0.015783846 0.042343587 -0.08551613 0.086771004 0.063764825 -0.0036919352
0.08817283 0.034971133 0.0691525 -0.09992691 -0.045217585 0.0103172725 0.08824976 0.0778785
-0.027838135 0.042058095 0.065992735 0.027797997 0.07457238 -0.037137005 0.04899779 0.057018004
-0.06945727 0.02654928 -0.06888865 0.0021968368 0.08752803 0.07734323 -0.04921706 -0.11104369
00000000: 4ddb cd3d 421a d83b a3c8 e33d 2ebd f03d
00000010: 0edc 54bb 099a bf3d d4f6 86bd 465b a13d
00000020: 3a67 d83d cb6b 363b 79d3 9b3d 1807 b4bb
00000030: 819e f53d b0d6 013e 53b2 963d 193a b13d
00000040: 9b99 943d bec4 be3c 7808 423c 99ee 80bc
00000050: 1907 373d 5319 543d e142 233e e418 d7bc
00000060: 4ea8 083e ea3e 15bd 801d febc 9ee9 803d
00000070: 6127 503c 8222 f83c be45 0c3e 1970 a13c
00000080: bafc e23c b0aa bf3d e30d 243d 862d 2ebd
00000090: c6b7 ccbb 32b2 e03d 3550 97bd f4db c63c
000000a0: 6aae 8b3c e37d 093d c880 803c 8f73 ae3d
000000b0: 1457 d63c bd94 e43d 06e6 b53e e00c 2a3d
000000c0: 3547 9dbd 3451 da3d a2f7 053e cfe7 6c3d
000000d0: 0259 043e 6644 873d 1c0f 31bd d643 fd3c
000000e0: 7c0e 9b3d 6963 833c 4860 b73d d10f 973c
000000f0: 765a 1a3e c3d7 83bd cbe1 31bd a846 98bd
00000100: d63f ae3d cf89 19bd e709 a53d acff c53d
00000110: 0822 c73d 9abc 943d bf4e 53bd a685 8b3d
00000120: 0627 663c c3d6 22bd 82f3 25bd 068f a0bd
00000130: 3170 0d3e 63ed 51bd 45f2 f63c 504f 63bd
00000140: 9d01 283e 413f fdbc 7ff9 e93d 705c 70bb
00000150: 0fb2 593d 493f e83d 614f 8a3d 7b79 683c
00000160: 082c be3d a4b8 abbc 2011 4abd 68b5 5f3b
00000170: b5b7 b23c a890 b13d 663b 943e 972d 333d
00000180: 0517 1bbd 5758 553d 4921 8e3d 4cc2 9bbc
00000190: a238 8dbd 45f9 c7bb 95a3 9cbb 4350 78bd
000001a0: b94b 863b 81eb 94bd 81e4 543d baf3 333d
000001b0: 48e0 9b3d 3817 873d 7321 62bc 7761 19bd
000001c0: 1a75 c0bd 57d0 a63d cc19 013d 815c 773d
000001d0: de17 44bd b7e4 5cbd dd13 83bd cb54 b63d
000001e0: b179 05bd ecfc 5e3c 36c3 e23d 109f ccbb
000001f0: 512c b53d bccc 46bc 6d73 c43d d7eb b8bd
00000200: 51f2 55bd e901 093b 3113 7e3d 706d ac3d
00000210: 8aa1 e1bc 3c14 193d b2b6 c83d e362 623d
00000220: 05eb b53c 4f0e 7a3d e991 9cbc 8b07 ad3d
00000230: 6e7f 33bd ab1a a13d 366d 083d 6023 a1bd
00000240: b62c a2bb b3c8 18bd dc76 b3bd 5df9 873d
00000250: ad70 b63d 2bc9 943c d0f0 0f3c cbec 7fbd
00000260: 9457 50bc d6d1 c63c 0c4b 5b3d 35c8 5db8
00000270: 2163 2ebd e51f 683d 74b1 bd3c e4e6 763c
00000280: 2cd1 e1bd 3798 aabd 1992 293c fbbb 13b8
00000290: 8f85 a6bc 97c3 013d 6ff3 50bd a5dc b0bd
000002a0: dbdc ab3d a7ed bbbd c695 95bc b750 4ebd
000002b0: 5831 efbc 90eb 6d3d 7f72 213d 408b 69bd
000002c0: 1a30 d13d 6bcf f4bc b8b3 34bd 0fbf 983b
000002d0: fee5 c03d 608c 83bc 72c9 81bd de82 bf3d
000002e0: dd4b 413d 884d 593c e069 a1bd f22f a83c
000002f0: 58a2 723d e5da 653d f183 423d 9c8a 9a3d
00000300: d60f 3fbb d1a2 6d3d e774 93bd d128 6fbd
00000310: d0fd 943d fe50 0fbc 0f8d af3d e581 3ebd
00000320: b470 383d b3ad bbbc bcc2 d2bc f9c5 8cbd
00000330: c8ee 693d 61ee 3fbc f105 c5bc b47c fbbb
00000340: d3d1 8abd 665e 2c3d ddb9 25bd d553 803d
00000350: e847 853d ff7b e9bc 5729 37bd 5ad5 873d
00000360: ca05 6b3d 1028 b43d cb30 b0bd 37fe 18bd
00000370: 403a 863d 829a 1b3d 6b91 8dbd 16c2 07bc
00000380: 8ec3 b73d ae67 903d 204d 813c 7870 2d3d
00000390: 1523 afbd ffb4 b13d 2297 823d 65f4 71bb
000003a0: f593 b43d e43d 0f3d d39f 8d3d 7ba6 ccbd
000003b0: 1336 39bd c709 293c 4abc b43d c37e 9f3d
000003c0: cd0c e4bc 1c45 2c3d 3327 873d a0b8 e33c
000003d0: 67b9 983d f91c 18bd e8b1 483d b68b 693d
000003e0: 9d3f 8ebd e07d d93c 7e15 8dbd cef8 0f3b
000003f0: e541 b33d 2166 9e3d d497 49bd e06a e3bd

fc.weight f4 [5, 100]
-0.027007855 0.043526974 -0.04402952 0.094959944 0.0009823865 0.027489921 -0.06378196 0.03932478
-0.014130394 -0.07086356 -0.118349954 0.14166419 0.07880583 0.024590328 -0.024930077 0.03754048
-0.07738028 -0.035422716 -0.06186913 0.0201129 0.07480262 -0.13755257 -0.0766502 -0.016736425
0.06938342 0.003671258 0.042884763 0.11902153 0.12030734 -0.10668935 -0.053711496 0.0061119157
0.041507643 0.030815879 -0.07752089 0.08809702 0.04584966 -0.12333771 -0.07803606 -0.09933788
-0.026093371 0.11813665 0.0983313 0.12253956 -0.0074067055 0.08227434 0.080771446 -0.060763296
0.10845672 0.044394583 0.024090666 -0.034600507 -0.022904186 0.15271258 0.036602426 0.015242613
-0.16183847 0.040992483 -0.04462608 0.1428496 0.065861136 0.06361374 0.051790275 0.035325076
-0.09632216 -0.067845576 0.029498106 0.03942583 0.012714166 0.0395037 -0.1469685 0.06612432
-0.037461855 -0.12523742 0.046817128 0.07312207 0.0017593654 0.11644182 0.11940193 -0.029835066
-0.08869694 -0.092323884 0.02698398 -0.00011044968 0.08315789 0.13212556 0.08100302 -0.13797972
0.113575585 0.109255545 -0.13070354 0.050956998 0.09598098 -0.13666037 0.16617969 0.05220775
-0.06380412 -0.09969951 0.0932261 0.02941762 -0.13519795 -0.021223595 -0.115311936 0.043094393
0.05137335 -0.021031357 0.0013758698 0.12225278 -0.116059296 -0.14186491 0.0037475347 0.15981923
0.13917808 -0.14862429 0.12921384 -0.033759385 -0.05982089 0.028381541 -0.023952149 0.08707958
-0.052921712 -0.013761063 -0.00096649554 -0.06837663 0.16670512 -0.12687582 -0.020420518 0.12668693
-0.01234271 0.050396405 0.04078641 -0.02843826 -0.032630976 -0.043676075 0.079403035 0.11925182
0.13377728 -0.043861136 -0.13450076 0.00486992 0.0018789418 0.064310014 0.09115411 -0.024200413
-0.07380867 0.11006351 0.15681559 0.014285415 0.0030542533 0.055808328 0.013936227 -0.039892025
0.053928483 0.17153245 0.11185674 0.10762069 -0.12633368 -0.06413602 -0.12363222 0.07638552
0.07037876 0.1167832 0.021076689 0.035130296 -0.09240244 -0.0417848 0.013251723 0.05877485
-0.008462816 0.100674845 -0.0055486863 0.14718214 0.024675598 -0.100203164 -0.00087443716 -0.048652012
0.084900185 0.0480721 -0.009216666 -0.06110705 0.013615001 -0.11567014 0.059506696 0.11936533
0.07224883 -0.027761698 -0.036497682 -0.15160243 -0.04924525 0.030253893 -0.11281205 0.047783624
0.06714446 -0.12483911 0.009292131 0.018788703 0.09534929 -0.07564097 0.05263996 -0.017067678
-0.08080552 0.08661375 -0.083507866 0.029619753 0.08653266 0.034660794 -0.056533847 0.13992439
-0.019520842 -0.12307748 -0.0051734275 0.024286056 0.03364834 -0.11741147 0.041647363 -0.037110705
-0.06798165 0.091718435 -0.07847477 0.05807846 0.047446836 -0.059354346 0.07079385 -0.102491975
0.1511169 0.065528445 -0.013508924 0.07996966 -0.006315188 -0.102493785 -0.098144144 -0.08234696
-0.14530306 0.10310068 -0.05282156 0.02388994 0.050566167 -0.065147795 -0.036062106 -0.069173366
-0.11257663 0.07649351 -0.02733616 0.07700751 -0.14543006 0.02885494 0.09624274 -0.052973237
0.10804374 0.014798621 0.037707347 -0.02439458 0.012302665 0.098503575 0.00911124 0.037287787
00000000: 943f ddbc 5749 323d 4c58 34bd 5c7a c23d
00000010: 6cc3 803a 8b32 e13c 1ea0 82bd 0513 213d
00000020: 2b83 67bc ea20 91bd 7661 f2bd 6b10 113e
00000030: f364 a13d a871 c93c 293a ccbc 0cc4 193d
00000040: 8d79 9ebd 6917 11bd 7c6a 7dbd cfc3 a43c
00000050: 1e32 993d 95da 0cbe c8fa 9cbd d41a 89bc
00000060: e518 8e3d 7d99 703b efa7 2f3d 8fc1 f33d
00000070: b263 f63d f27f dabd 9600 5cbd 7746 c83b
00000080: eb03 2a3d 9571 fc3c 46c3 9ebd 366c b43d
00000090: dacc 3b3d 7b98 fcbd 5fd1 9fbd a971 cbbd
000000a0: c4c1 d5bc a1f1 f13d ec61 c93d 05f6 fa3d
000000b0: f3b3 f2bb 737f a83d 806b a53d efe2 78bd
000000c0: 8f1e de3d 18d7 353d ca59 c53c 43b9 0dbd
000000d0: 8fa1 bbbc b060 1c3e 6dec 153d 27bc 793c
000000e0: fcb8 25be bce7 273d d6c9 36bd 2a47 123e
000000f0: 34e2 863d ec47 823d 0a22 543d 07b1 103d
00000100: 8d44 c5bd 9ff2 8abd 03a6 f13c fb7c 213d
00000110: 144f 503c a2ce 213d e97e 16be 306c 873d
00000120: 9a71 19bd 3d3e 00be 51c3 3f3d 06c1 953d
00000130: 829a e63a 0d79 ee3d 0089 f43d ab68 f4bc
00000140: bea6 b5bd 4e14 bdbd 820d dd3c 38a1 e7b8
00000150: af4e aa3d ec4b 073e e9e4 a53d 8e4a 0dbe
00000160: 519a e83d 5fc1 df3d 26d7 05be 49b8 503d
00000170: ad91 c43d b2f0 0bbe 022b 2a3e cbd7 553d
00000180: bcab 82bd 422f ccbd 53ed be3d 38fd f03c
00000190: 5571 0abe 1bdd adbc aa28 ecbd bf83 303d
000001a0: dd6c 523d f449 acbc 8856 b43a aa5f fa3d
000001b0: 7fb0 edbd 0945 11be 3399 753b a7a7 233e
000001c0: b384 0e3e f730 18be a250 043e 4847 0abd
000001d0: c006 75bd 6880 e83c 4c37 c4bc c756 b23d
000001e0: 70c4 58bd 1576 61bc 6b5c 7dba 0c09 8cbd
000001f0: bfb4 2a3e bceb 01be ee48 a7bc 38ba 013e
00000200: 1439 4abc 766c 4e3d a70f 273d 5bf7 e8bc
00000210: 0fa8 05bd afe5 32bd 0f9e a23d 4c3a f43d
00000220: e9fc 083e bca7 33bd 91ba 09be da93 9f3b
00000230: d346 f63a f8b4 833d 02af ba3d f23f c6bc
00000240: 0029 97bd fa68 e13d 4494 203e 600d 6a3c
00000250: de29 483b 4697 643d c654 643c d265 23bd
00000260: 1de4 5c3d 34a6 2f3e 2615 e53d 3c68 dc3d
00000270: 9e5d 01be bf59 83bd e432 fdbd 0370 9c3d
00000280: bd22 903d 082c ef3d 05a9 ac3c c9e4 0f3d
00000290: 7e3d bdbd 8a26 2bbd c11d 593c e6bd 703d
000002a0: 9fa7 0abc 9d2e ce3d c1d1 b5bb eab6 163e
000002b0: 7b24 ca3c 5137 cdbd 7c3a 65ba 5547 47bd
000002c0: 26e0 ad3d 40e7 443d 8001 17bc 634b 7abd
000002d0: 7411 5f3c 77e4 ecbd 4bbd 733d cf75 f43d
000002e0: 32f7 933d 806c e3bc 987e 15bd ab3d 1bbe
000002f0: 63b5 49bd 03d7 f73c 010a e7bd c3b8 433d
00000300: 0983 893d a6ab ffbd 063e 183c c4ea 993c
00000310: 7d46 c33d a7e9 9abd 009d 573d 84d1 8bbc
00000320: 5d7d a5bd 8d62 b13d 2c06 abbd 20a5 f23c
00000330: 0938 b13d 7af8 0d3d 0990 67bd 5748 0f3e
00000340: 2cea 9fbc 0c10 fcbd db85 a9bb 8df3 c63c
00000350: d7d2 093d 6d75 f0bd 6d96 2a3d 6501 18bd
00000360: f739 8bbd e0d6 bb3d 61b7 a0bd aee3 6d3d
00000370: 9d57 423d 8b1d 73bd 5efc 903d 50e7 d1bd
00000380: 63be 1a3e c733 863d 8954 5dbc 22c7 a33d
00000390: a3ef cebb 43e8 d1bd ccff c8bd 86a5 a8bd
000003a0: 53ca 14be 7326 d33d 6c5b 58bd d6b4 c33c
000003b0: 781e 4f3d 356c 85bd dcb5 13bd c4aa 8dbd
000003c0: 948e e6bd a1a8 9c3d 15f0 dfbc 1db6 9d3d
000003d0: 9eeb 14be 3261 ec3c ea1a c53d 77fa 58bd
000003e0: 0946 dd3d ea75 723c 0573 1a3d 24d7 c7bc
000003f0: 1e91 493c 3ebc c93d 4f47 153c 14bb 183d

fc.bias f4 [5]
0.095900916 0.036330476 0.07951241 -0.01469931 0.004191773
00000000: b367 c43d 44cf 143d 67d7 a23d 60d5 70bc
00000010: 245b 893b
