checkpoints/rnn2.pt (torch, 130495 bytes, 10 tensors)

rnn.weight_ih_l0 f4 [200, 5]
000000 af 7c 67 3d 96 ec 90 3d ed 65 a5 3d 7e a8 78 bd
       0.056515392 0.07076375 0.080760814 -0.06070756
000010 6d 9e 40 3d e1 05 96 3d d8 ff fc bd 7b b9 dd bb
       0.047026087 0.0732534 -0.12353486 -0.0067664958
000020 19 bb 02 be a9 a0 f5 bc 8f ef 27 3d eb cb 56 bd
       -0.12766685 -0.029983835 0.040999945 -0.052440565
000030 d8 21 fd bd 53 57 28 be e1 87 c3 bc f1 ad 86 bb
       -0.12359971 -0.16439562 -0.023868503 -0.004110091
000040 0d 26 a0 3d b2 46 f0 bd 24 2c 89 bd c9 f0 a4 3d
       0.078197576 -0.11732234 -0.06697872 0.080537386
000050 cf cf 52 bd b2 66 6d 3d 04 3d 01 3e 58 aa b1 bd
       -0.051467713 0.057959266 0.12620932 -0.086750686
000060 39 17 e3 3c d5 70 53 3d 99 ee a0 bd b3 45 98 bc
       0.027721034 0.051621277 -0.07858009 -0.018587923
000070 5f f3 51 bd a2 9d d8 3d 4e e5 38 3d a3 8d d1 bd
       -0.051257487 0.10576941 0.045140557 -0.10232093
000080 12 0f ad bd d2 c2 21 3d d8 49 c4 3d 09 af 58 bd
       -0.0845014 0.039492436 0.09584397 -0.0529013
000090 86 bd 96 3d 2e 09 8a 3c 4c 38 97 3d 36 26 7c bd
       0.073603675 0.01685008 0.07383785 -0.06155988
0000a0 79 dc 47 bd 29 7a cc 3d bf f9 9d b9 aa 0a 67 bc
       -0.048794243 0.09984238 -0.0003013145 -0.014101664
0000b0 01 d3 46 be 07 4d 96 bc b8 0a d3 b9 0a af 0e 3e
       -0.19416429 -0.018347276 -0.00040253042 0.1393396
0000c0 ac bd 2f 3e 63 a6 ec 3b 0a 4a ff 3d cf 7a 72 bd
       0.17162198 0.0072219833 0.12465294 -0.05919915
0000d0 c4 33 01 3e cf a1 84 3d c4 5f 18 3d 49 3e 88 bd
       0.12617403 0.06476175 0.037200704 -0.06652505
0000e0 75 2d f5 bd fc d3 9b bd 42 40 f5 bc 87 21 a0 3d
       -0.11971561 -0.07608792 -0.029937867 0.07818895
0000f0 25 75 3b bd 76 77 a4 3d 3f b2 16 bb 15 a6 2d bd
       -0.045766015 0.08030598 -0.0022994427 -0.042394716
000100 05 c7 74 bd bd 7a 94 3d ef 7a 9e bc a8 4b da ba
       -0.059760112 0.07249973 -0.019345729 -0.0016654627
000110 d9 7e a3 3c d2 b8 ac bd 52 10 03 3d c6 f6 d0 3d
       0.019957947 -0.08433689 0.031997986 0.10203318
000120 3e 01 bf 3c 2a 97 b1 3c 98 ea 1a bd 49 8e 07 be
       0.023316022 0.021678526 -0.037821382 -0.13237871
000130 35 59 a9 bd f8 bd dc bd 45 61 88 3d 94 37 88 ba
       -0.08268968 -0.10778421 0.06659178 -0.001039254
000140 00 d9 b2 3d b9 92 c6 3d e4 7e a5 bd a3 21 13 be
       0.08732796 0.09695954 -0.08080843 -0.143683
000150 f3 60 cf 3d ed 09 2f 3d 6c 6d f4 3d a4 35 d4 bc
       0.101259135 0.042734075 0.11934933 -0.025904484
000160 2f 44 c8 3d 92 f9 81 bb af 5a 86 3d ff 8a 6f 3d
       0.0977863 -0.0039665187 0.06560265 0.058482166
000170 15 54 4a 3d a8 f3 83 bd 3a 50 3d bd 88 c7 db 3d
       0.049396593 -0.06442958 -0.046219088 0.10731417
000180 e6 4b d8 bd 8d 76 bf bd 45 a9 f4 3d 32 b3 01 3e
       -0.105613515 -0.09348784 0.11946348 0.12666014
000190 fc 2e b0 3d 69 0a 13 3e 11 c9 3e bd bb ef ac bd
       0.086027116 0.1435944 -0.04657847 -0.084441625
0001a0 2e 56 36 bd 2e 0c 20 3e fd bd 83 bd 48 53 ea 3c
       -0.04451578 0.15629646 -0.06432722 0.028604165
0001b0 bd 45 01 3e 99 01 19 bd fc 3d 19 be c1 b6 c8 bd
       0.1262426 -0.03735504 -0.14965051 -0.098004825
0001c0 99 65 d7 bc ef 17 33 3d a2 fe af 3d 63 97 0f 3e
       -0.026293563 0.043723997 0.08593489 0.14022593
0001d0 d8 1d fd 3d 91 ca 17 3d ba d6 9d 3c 99 ce c4 bd
       0.12359208 0.037058417 0.019267429 -0.09609718
0001e0 e4 3a 03 3e 79 32 14 3d 47 45 c4 bd f9 2e 0b 3e
       0.12815434 0.036180947 -0.09583526 0.13592137
0001f0 1d 98 f8 bd 25 c4 46 3d 59 41 06 be 65 13 08 be
       -0.12138388 0.0485269 -0.13110866 -0.13288648
000200 55 3f a5 bd 38 cd a1 bb c4 49 2a be 3a 5b 2f bd
       -0.0806872 -0.004937794 -0.16629702 -0.04281161
000210 b6 f5 06 3c b3 df 01 3d fb 05 ac bd 1c a1 11 be
       0.008237293 0.031707477 -0.08399578 -0.14221615
000220 03 a0 60 bb 1c ee a9 bc 29 39 50 bd 42 1b af 3c
       -0.0034275062 -0.020743422 -0.050835762 0.021375302
000230 9a a4 0d 3d 19 5e 1c 3d ab ac 35 bb d0 03 b2 bd
       0.034580804 0.038175676 -0.0027721326 -0.086921334
000240 af 7c e0 3d d6 c1 af 3c 2e e8 42 3d f7 08 0f bd
       0.109612815 0.021454733 0.047584705 -0.03492066
000250 32 97 28 bd a9 03 6e bd ad 60 33 3c d9 34 21 bc
       -0.041159816 -0.05810896 0.010948342 -0.00983926
000260 98 23 24 3d 3d e5 85 bd a7 4b 82 bb a3 9e 93 bd
       0.040073007 -0.06537864 -0.0039763036 -0.07207992
000270 52 ce 20 bd 06 e1 b5 bc ca 74 06 bc 98 ed da 3c
       -0.039259262 -0.022202026 -0.008206556 0.026724622
000280 1d b7 0d be 49 3e 28 3c 05 0a 52 3c 13 c7 5e 3d
       -0.13839383 0.010268756 0.012819772 0.05438907
000290 86 fb 94 3d 0a 7e ec bd 40 81 13 be e1 35 b1 3c
       0.07274537 -0.115474775 -0.14404774 0.021632137
0002a0 62 ec 91 3c d3 8c 94 bc 30 26 0d be e1 75 de 3c
       0.017812911 -0.018133556 -0.13784099 0.027155818
0002b0 da 57 0e be 1a f6 cb 3d da c3 61 bd 07 6d b8 bd
       -0.139007 0.099590495 -0.05511842 -0.0900517
0002c0 7c 2f b0 3d 65 bc fe 3d 20 f6 7e 3c f0 1e 0b 3b
       0.08602807 0.12438277 0.01556161 0.0021228157
0002d0 b4 89 a3 bd 1f 6a 07 be 5f 28 1c be 94 95 69 3d
       -0.07985249 -0.13224076 -0.15249775 0.057027414
0002e0 e9 18 62 bd 33 6d a1 bd 45 c9 0c bd ec 69 e2 3c
       -0.055199537 -0.07882156 -0.034371633 0.027638398
0002f0 61 68 5c 3d 6e cd c7 bb 82 7b a7 bd fd 36 8e bd
       0.05381048 -0.006097487 -0.08177854 -0.06944082
000300 7e c0 b4 ba 0f e8 53 bd e3 97 40 3d a5 5b f6 3d
       -0.0013790277 -0.05173498 0.04701985 0.120291986
000310 9e 67 0e be 77 b8 05 be 62 45 af bd c5 5a e2 3d
       -0.13906714 -0.13058649 -0.085581556 0.11052469
000320 78 14 61 bb 67 91 be 3c 28 6b 64 bd 2b 22 bc 3d
       -0.0034344476 0.023262693 -0.055766255 0.091862045
000330 66 db 17 3d 2a 69 de 3d 7b d7 7f 3b 90 96 da 3d
       0.03707447 0.10859902 0.0039038348 0.10673249
000340 b9 8e a3 3d f6 de 2a bd 32 f0 30 be 94 aa 28 bd
       0.079862066 -0.04171654 -0.17279127 -0.0411783
000350 ce ca e1 3c d8 af 08 be 82 e0 c6 3c d0 b2 de bc
       0.027562525 -0.13348329 0.024276976 -0.027184874
000360 64 b2 59 bd 29 bd fc bd a0 78 dd bc 33 de b5 3c
       -0.053148642 -0.12340767 -0.027035058 0.02220068
000370 a7 c4 73 bd ad ca 22 be 31 ae e7 bd e6 b6 f3 bd
       -0.059513714 -0.15897627 -0.11312521 -0.119001195
000380 e8 ac 4f 3c 1f 72 5f bd f7 9d f7 3d 86 1d 16 be
       0.012675501 -0.054552194 0.12090676 -0.146597
000390 23 7f d1 3d e7 0e af bd 32 8f 7b 3c 2c e5 a6 ba
       0.102293275 -0.08547764 0.015353965 -0.0012733093
0003a0 2f d5 e9 bd 19 12 41 bd 28 03 09 3d 43 72 88 3b
       -0.11417615 -0.0471364 0.033450276 0.0041640117
0003b0 06 e9 cd 3d ec e0 f4 bc d8 66 10 be 97 17 8b bc
       0.10054211 -0.029892407 -0.14101732 -0.016979022
0003c0 42 26 ba bd e2 3b fe bd fd 76 f3 bd f5 ac 74 3d
       -0.09089328 -0.124137655 -0.118879296 0.059735257
0003d0 89 96 c4 bd c5 a5 16 bb d9 a3 ef 3d 18 33 3d 3d
       -0.09599025 -0.002298699 0.11701173 0.046191305
0003e0 1d d0 0a 3d 8c 06 30 3e 2e ea 1e 3c 5c 41 b8 b9
       0.03388988 0.17189997 0.0096993875 -0.0003514391
0003f0 6e 3d 12 3e 17 4f 23 3e 4d 69 22 be 89 1c f3 bc
       0.14281246 0.15948139 -0.15860482 -0.029676693

rnn.weight_hh_l0 f4 [200, 50]
000000 1c 85 02 bd 4b 5a 1a 3d a4 d8 62 3d 7f 3f b3 bd
       -0.031865224 0.037683766 0.055382386 -0.08752345
000010 72 c5 eb 3d 06 38 b7 3d 99 c4 13 be 56 ef ce bc
       0.11512269 0.089462325 -0.14430465 -0.025260609
000020 e5 16 90 3d b1 7f b1 3d 86 92 cd bd 5f 9e 25 3c
       0.07035617 0.08666933 -0.10037713 0.010108559
000030 e0 c5 a8 bc a1 0d 89 bb 4b 3f 11 be 9c 34 49 bc
       -0.020602167 -0.004182533 -0.141843 -0.012280609
000040 fa f5 92 3d 23 4c 94 3d 16 2b f5 3c 94 2d a2 3d
       0.071758226 0.072410844 0.029927772 0.079188496
000050 16 4a 80 3d 86 4c 2f 3e a5 ad 1b 3e 6b 50 2d be
       0.06264131 0.17119035 0.15202959 -0.16925208
000060 34 b8 2c bc 7b 43 8d bd b7 25 0f bd 68 4f 1b 3c
       -0.010541964 -0.068976365 -0.034948077 0.009479381
000070 02 ae d9 3d e8 2e 96 bc 4f d8 43 bd 74 5f 1c 3e
       0.106288925 -0.018332914 -0.04781371 0.15270787
000080 24 b6 f5 3b 30 01 bf bd 4a c0 04 bd a1 ad 54 3d
       0.0074985195 -0.093263984 -0.032409944 0.051923398
000090 ff d7 0e be 39 31 08 3d fc 40 f0 bd 3e 72 97 3c
       -0.13949583 0.033250067 -0.11731145 0.018487092
0000a0 2f 04 5c bc 0d 71 0e be 95 ea e2 3d f5 e1 fa bd
       -0.013428732 -0.13910313 0.11079899 -0.12250129
0000b0 17 c4 8d 3d bd 82 ee bc 3f 4b 32 3d 04 6f 86 3c
       0.06922167 -0.029115075 0.04352879 0.016410358
0000c0 6e 45 e9 3d dc 8d 3e bd b6 7f ac bd 17 e7 9d bc
       0.11390196 -0.046522006 -0.084227964 -0.019275231
0000d0 3a 4a 44 3d c0 25 cc bd 42 d9 f6 bc 90 2d 63 3d
       0.04792235 -0.09968138 -0.030132893 0.055463374
0000e0 8e ff 3f 3c 11 f2 67 3d 09 8d bd bd 6b ed a7 bd
       0.011718644 0.056627337 -0.09255416 -0.08199581
0000f0 10 82 ab 3d 03 67 ce 3d 1e f4 b0 bd b6 96 a0 bc
       0.08374417 0.10078242 -0.08640312 -0.019603115
000100 57 5b 0e 3e d4 1d 64 3d d4 28 b1 3d 92 0b a4 3c
       0.13902031 0.05569251 0.086503655 0.020025048
000110 04 27 37 3d 37 e9 bd 3d 20 9b 3c bd d1 cb ed 3b
       0.044714943 0.09272998 -0.046046376 0.007256963
000120 88 8d ac bd ef 57 c3 3d 42 7c a6 bd 32 35 81 bd
       -0.084254324 0.095382564 -0.08129169 -0.06308974
000130 95 80 c4 bd 51 70 33 bd e7 17 7c bd 92 a1 d3 bc
       -0.095948376 -0.043808285 -0.061546233 -0.025833879
000140 a8 a0 24 bd fd ca ea 3b e7 09 4c 3d f8 f6 dc bd
       -0.040192276 0.0071653114 0.04981413 -0.10789293
000150 89 bc 98 3d 58 8d 9f bc b0 f0 11 bd d0 50 aa 3d
       0.07457835 -0.019476578 -0.035629928 0.08316195
000160 b2 85 16 be a1 af 1d bd 88 19 e7 bc fe 6b f6 3c
       -0.14699438 -0.03849757 -0.028210416 0.030080792
000170 87 59 f2 3c 5c 1b 3b bd 2d ea 68 39 22 f4 19 3e
       0.029583706 -0.04568039 0.00022212481 0.15034536
000180 4c a9 49 3d b7 70 19 3d 55 00 bb bd 84 32 f2 bd
       0.04923372 0.03746101 -0.09130923 -0.11826041
000190 95 69 2f 3d 04 55 e8 3a bc a4 3d 3d 10 a9 d1 3d
       0.0428253 0.0017725532 0.04629968 0.10237324
0001a0 1b 8b 2c 3d af e5 74 3d 71 f4 56 3c 8a ea e6 bb
       0.04212485 0.059789356 0.013119803 -0.007047002
0001b0 c4 27 18 3e ea a2 f8 3d 2a 26 47 3d d6 c4 b1 3d
       0.1485892 0.121404484 0.04862038 0.086801216
0001c0 f3 db 55 bd fb 96 a9 3d c1 da 04 3d 31 55 23 bd
       -0.052211713 0.0828075 0.032435182 -0.039876167
0001d0 14 4d 9d bc 06 0e bf bc 00 2e a5 bd 33 a2 9e 3d
       -0.019201793 -0.023322117 -0.080654144 0.07745781
0001e0 db 73 ae bc 82 cc db 3c 08 79 71 3d ee 4b 47 bc
       -0.021295479 0.026830915 0.058953315 -0.012164099
0001f0 f1 74 8e 3d 45 5e df bd fe 40 84 bd 01 d1 2f bb
       0.069558986 -0.10906652 -0.06457709 -0.0026827457
000200 67 5a b9 3d f8 56 68 3d b5 94 8c 3d 88 99 37 bb
       0.09050446 0.056723565 0.06864301 -0.0028015096
000210 14 eb cb bc 38 ed 62 3d c2 1c 20 bc 08 43 a3 3d
       -0.024892367 0.05540201 -0.009772481 0.079717696
000220 54 93 65 3d 3e b9 ff 3c 61 51 ec bd 01 8f 85 bd
       0.056048706 0.03121626 -0.11538959 -0.065214165
000230 30 41 fc 3d 56 c6 5d 3d 11 0c 9b 3d 47 85 af bd
       0.12317121 0.054144226 0.07570661 -0.085703425
000240 8a 32 f6 bd 07 11 b7 bd 0e be 8d bc 90 94 cb bd
       -0.12021358 -0.089387946 -0.01730254 -0.099404454
000250 23 af 3f 3c 32 56 e3 3c 77 84 3f 3e 27 e3 b8 bb
       0.011699471 0.027751062 0.18702875 -0.005642313
000260 e7 2a 1f 3c cd 25 76 bd 5a 75 80 3d 30 ff 41 3d
       0.009714819 -0.060094643 0.06272383 0.047362506
000270 4a cb 64 bc 27 6f f4 3d f5 e7 15 3b f4 91 ef bb
       -0.0139644835 0.11935263 0.0022873853 -0.0073111
000280 0c 2c da 3b 8f 3b 33 bd cb 64 a5 3d db 01 67 bd
       0.006658083 -0.04375797 0.08075865 -0.056398254
000290 a9 26 d1 bc 95 bd d6 bd 79 81 5c 3c 07 20 20 3e
       -0.02553113 -0.10485379 0.013458603 0.15637217
0002a0 bd aa db 3d 7e ef 32 bc 26 be c3 bd fc e3 be 3d
       0.10725925 -0.010921357 -0.09557752 0.09320828
0002b0 db 8a 95 bd 74 59 00 3b 43 2f 74 bd af be ac bd
       -0.07301875 0.0019584568 -0.059615385 -0.084348075
0002c0 3e ed a8 3d 2b dc 61 3d 20 20 a1 bd ba b9 85 bc
       0.08248375 0.05514161 -0.078674555 -0.016323913
0002d0 5c 0b a6 3c b1 8d 8e 3c 90 96 2a 3e df fb 23 bc
       0.020269088 0.017401548 0.16658998 -0.010008781
0002e0 f7 7b c1 3c dd d1 34 bd 40 cf 9e bd 9c 59 53 3d
       0.023618681 -0.044145454 -0.077543736 0.05159913
0002f0 e2 fd 2e bd c5 4a e6 bd e1 32 64 3d 38 0d 24 3d
       -0.04272259 -0.1124473 0.055712584 0.04005167
000300 65 a5 ef bd ae a6 c1 bd b0 99 59 bd 15 ba 8a 3d
       -0.117014684 -0.0945562 -0.053125083 0.067737736
000310 8d 76 45 be e1 66 01 3d 9c c7 56 bb 45 53 21 bd
       -0.19283505 0.031592254 -0.0032772785 -0.039386053
000320 3c 6f e6 3d 7a 8d f2 bd 70 e5 b7 3d 1b 83 0f bc
       0.11251685 -0.11843391 0.089793086 -0.008759285
000330 cf c8 f3 bc 3e 18 be bd 07 53 96 bd b7 0d 2e 3e
       -0.029758839 -0.092819676 -0.07340055 0.1699742
000340 cf 01 a9 bd e4 34 7a 3d 24 4b d2 bd 1e e5 14 3e
       -0.08252298 0.061085597 -0.10268238 0.14540526
000350 1b d0 cb bc 2f 84 1c 3e 2f 71 ac 3d 77 62 94 bd
       -0.024879506 0.15284799 0.084200256 -0.07245343
000360 6e f5 92 bd 89 02 9a bc 78 d3 f1 3d 23 77 1d bc
       -0.07175718 -0.018800037 0.118079126 -0.009610924
000370 6c f2 ad 3d 17 af a6 3d a0 3d 88 bd e3 c3 04 be
       0.08493504 0.081388645 -0.06652379 -0.1296535
000380 2e e8 10 3e 47 dc 7c bd 2b 65 47 3d 6a 98 11 be
       0.1415107 -0.06173351 0.048680466 -0.14218298
000390 e2 91 00 3e 02 73 c2 bd d9 4f d6 3d 19 8a ec 3c
       0.1255565 -0.09494592 0.104644485 0.028874444
0003a0 ad e4 e4 3d f0 88 d2 3c 71 01 a6 3d a0 13 a5 bc
       0.11176429 0.025700063 0.08105744 -0.02015096
0003b0 46 9f 1a be 0f 9b b0 bc b7 cb 86 3d 83 da 88 bd
       -0.1509982 -0.021558313 0.06581824 -0.06682303
0003c0 ef 0c ab 3d 25 85 05 3d a2 12 f1 bd c4 07 ad 3d
       0.08352076 0.03259768 -0.11771132 0.08448747
0003d0 b9 94 14 be ce 85 27 3d 3e 45 09 3d 0d bb 04 3e
       -0.14509858 0.04089909 0.0335133 0.12961979
0003e0 4b ff 0d be d9 88 11 bd 43 3c 0c 3e 98 03 67 3d
       -0.13866918 -0.0355309 0.13694863 0.05639991
0003f0 06 58 5a 3d d5 29 56 bd a0 c6 8e 3b 17 f8 3f bd
       0.053306602 -0.052285988 0.004357174 -0.046867456

rnn.bias_ih_l0 f4 [200]
000000 21 81 01 3d e2 94 82 bd 5b bd ec 3c a2 92 27 3e
       0.031617288 -0.063760534 0.028898885 0.1636453
000010 57 c3 cd 3d d1 8f 75 bd 09 fc bc 3d 9b 6f 7c bb
       0.10047024 -0.059951607 0.092277594 -0.003851867
000020 bf aa 76 3c f9 e6 d0 3d 2e 06 b0 3c 68 af e9 3d
       0.0150553575 0.102003045 0.021487322 0.11410409
000030 39 85 e1 3d c9 9c 8f 3b 07 3b d2 3d b9 93 5a 3d
       0.11011738 0.004382704 0.10265165 0.053363536
000040 10 37 74 bd ae 7f 9d 3c ed a4 0c 3e ff b7 ce 3a
       -0.059622824 0.019225921 0.13734789 0.0015771388
000050 85 32 1d 3e f3 8a 21 bd 1a f5 03 be d9 b2 db bd
       0.15351303 -0.039439153 -0.12886468 -0.10727472
000060 62 44 b8 3d 9b 2b 65 bd c9 e2 b8 bd aa 75 f2 3d
       0.08997418 -0.05594979 -0.09027631 0.11838849
000070 7c 75 44 3e fa 27 93 3d 4a 22 59 3d a4 8b ef 3d
       0.19185442 0.07185359 0.053011216 0.11696556
000080 10 81 98 3c ae 94 bd bd 93 d0 3a 3d 50 7c 55 3d
       0.01861623 -0.09256874 0.045609068 0.052120507
000090 18 9f f0 3d 40 4b 30 bd de 18 90 3d 4b a8 ec 3d
       0.11749095 -0.043040514 0.07035993 0.11555537
0000a0 26 5d b7 3d 98 2c 02 3e 18 26 8e 3d f7 ef 7a 3d
       0.089533135 0.12712324 0.069408596 0.061264005
0000b0 2c 8c a2 bd 76 73 89 bd 02 fe 63 bd 8e 38 41 bd
       -0.07936892 -0.067114756 -0.055662163 -0.047173075
0000c0 0d 3b ca 3d df cb fc 3d 52 ec e7 3d e5 8c 78 3d
       0.09874544 0.12343573 0.113243714 0.060681242
0000d0 cc d8 90 bd ae d7 04 3d 14 11 0e 3e 17 2b 67 bd
       -0.07072601 0.03243225 0.13873702 -0.056437578
0000e0 ed 37 68 3d 1a 4f 67 3d 57 cb dd 3d 14 e4 2e 3e
       0.05669396 0.05647192 0.108297996 0.17079192
0000f0 ec 9d 8b bc 9e 99 09 3e 9b 06 bb ba 78 7f b1 bd
       -0.017043076 0.13437507 -0.0014268936 -0.08666891
000100 71 02 34 bd eb 57 6a bd 4b 2b d1 3d d0 31 b6 3d
       -0.04394764 -0.05721275 0.102133356 0.0889622
000110 9f bb 74 bd 68 e9 08 3e 39 ba ae 3c 7d c1 6f 3c
       -0.059749242 0.13370287 0.021329032 0.014633534
000120 17 dd 56 bc e6 26 a0 3d ad 23 d0 3d 6f 97 08 3e
       -0.013114235 0.07819919 0.101630546 0.13339017
000130 ef 4b ec 3c b6 b5 40 3d 6c c8 aa bd 74 37 f8 bd
       0.028844802 0.047048293 -0.08339009 -0.12119952
000140 ab e9 96 3d 4d d6 c5 bd 07 12 e9 bc 67 a3 30 bd
       0.073687874 -0.09660015 -0.028450979 -0.043124583
000150 ea db fe bd fd db 8a bc 66 17 e7 3d 67 ef a9 3d
       -0.12444289 -0.016950602 0.1128376 0.082976155
000160 db 72 c2 3d 9c 06 06 be e0 2c 0e bd f4 35 86 bd
       0.09494563 -0.13088459 -0.034710765 -0.065532595
000170 bc 6d a7 bd 8d 97 ae bc 2f 0f 3c 3d 84 06 ee 3c
       -0.08175227 -0.0213125 0.045912918 0.029055841
000180 0c ee d5 bd ea a2 eb bc ae ce 1e be 1b e4 46 3d
       -0.104457945 -0.028764207 -0.1550853 0.048557382
000190 d8 c9 a8 3c ab 1d ba 3c 1e 66 a9 bb ab c7 58 bc
       0.02060406 0.022719225 -0.005169644 -0.013231198
0001a0 3e fc c0 3d a8 28 cd 3d 20 47 e3 3c e1 dc 1c 3d
       0.094231114 0.1001752 0.027743876 0.038296584
0001b0 17 9b 03 3c ec b9 81 bd a5 0c e6 bd 87 d5 18 be
       0.008032582 -0.0633429 -0.112328805 -0.14925204
0001c0 a3 39 d4 3d 42 80 ee bd c4 78 d0 bc 50 02 eb 3d
       0.10362556 -0.11645557 -0.02544821 0.114750504
0001d0 97 a1 c9 3d 6b 55 84 3d 46 be c2 3d 78 94 d3 bd
       0.09845274 0.06461605 0.09508948 -0.103310525
0001e0 16 74 51 3d 69 46 3d 3d bd 84 9a 3d 6b a8 ad bd
       0.0511361 0.046209726 0.07544849 -0.08479389
0001f0 32 08 ca 3d 7b e3 ba 3c 48 86 cb bc 42 e6 d8 bd
       0.098648444 0.02281355 -0.024844304 -0.10590793
000200 46 2b c5 3d 8e fa f5 bd ee f4 10 be 2b 97 33 bd
       0.096273944 -0.1201068 -0.14155933 -0.043845337
000210 4d 60 1f bc e8 0f 0a bd e1 f7 ad 3d b3 6b 17 3d
       -0.00972755 -0.033706576 0.08494545 0.036967944
000220 7f a1 c4 bd b6 e3 4a bd fd 13 cd bd 0a 77 8f bc
       -0.096011154 -0.04953357 -0.10013578 -0.017512817
000230 d4 80 0a bd e2 b0 92 bd c1 d6 ec 3c 4a 9b cf 3d
       -0.033814266 -0.07162644 0.028910996 0.10137041
000240 c5 2f ac bd ce 7d d9 3d 0d dd 93 3d 47 e9 c4 bc
       -0.08407549 0.106196985 0.072198965 -0.024037017
000250 de 8d 1f bd de df ee bc d0 44 9e bb 96 31 a4 bd
       -0.038953654 -0.029159483 -0.0048299804 -0.0801727
000260 fd a8 e4 bc 8b 90 09 3d 61 c7 fd bb 28 f2 b3 3b
       -0.027912611 0.033585113 -0.007744715 0.0054915138
000270 20 ad 9a 3d 42 50 4c 3d 11 c4 ff 3c ee 29 22 3d
       0.07552552 0.049881227 0.031221421 0.03959077
000280 73 4d 34 3d 14 e1 44 bd 3c 02 08 3e 3c 33 ad bc
       0.044019174 -0.048066214 0.13282102 -0.021142595
000290 cb d4 12 3d 72 ac 91 3d bd 57 b7 bd b0 8c 2a 3e
       0.035847466 0.071129695 -0.089522816 0.1665523
0002a0 96 02 23 3d 2a 54 42 3d b8 98 8c 3d 53 3f b0 3d
       0.039797388 0.047443546 0.06865066 0.08605828
0002b0 af 95 51 bc c0 ce 49 3d b7 43 0c 3d 9b 6c d8 bb
       -0.012792035 0.049269438 0.034244265 -0.0066047437
0002c0 ab 4e 8b 3d 66 2c 3c bc 43 5a a5 3d 96 4b b3 bd
       0.06802114 -0.011485195 0.08073857 -0.08754651
0002d0 ca a9 24 3e 01 ff 19 bd cc f4 0a 3e 5b 14 f0 3c
       0.16080394 -0.037596706 0.13569945 0.029306581
0002e0 1e 5d c6 3d 97 43 6c bb 5d 43 13 3b f3 5f a2 3c
       0.096857294 -0.003605103 0.0022470572 0.019821143
0002f0 48 a3 b0 bd a7 d6 49 bd 8a 12 de 3c a5 d0 a3 3d
       -0.086248934 -0.049276974 0.02710845 0.0799878
000300 42 46 b2 bd 58 e6 a3 bd 64 c7 0c 3d 79 1f 08 3e
       -0.08704807 -0.08002919 0.03436984 0.13293256
000310 17 25 3a bd 2f 6b 97 bd e1 30 f0 3d 00 c2 28 bc
       -0.045445528 -0.073934905 0.11728073 -0.010300159

rnn.bias_hh_l0 f4 [200]
000000 11 9b 9e 3d 7b 5e 59 bd b4 71 6a 3d ef 2d 26 3e
       0.0774442 -0.05306862 0.057237342 0.1622846
000010 ca 12 ed 3d d2 0a 0d 3e 21 32 bb 3d 0d 70 8e bd
       0.11575849 0.13773659 0.09140421 -0.06954966
000020 ac a5 8b 3d a9 a2 c0 3d 2d 16 89 3d 36 5f 19 3e
       0.06818709 0.09406025 0.06693683 0.14977726
000030 7b 10 0a 3e e8 4a 37 3d 3e 32 05 3e 65 ce 0b 3e
       0.1348285 0.04474917 0.13007447 0.13652952
000040 bd 0c c4 3d ba 41 1d 3e fe c9 d7 3d 0d b1 bc bd
       0.09572742 0.15357104 0.10536574 -0.09213457
000050 cc 37 42 3e c6 16 0b be 67 d0 15 be 29 98 19 3d
       0.18966597 -0.13582906 -0.1463028 0.037498627
000060 3e 5a b8 bd 7e c9 9c bc 5c 71 b9 3d 1e 19 98 bc
       -0.09001587 -0.019139048 0.09054825 -0.018566664
000070 62 a2 1c 3e 94 d5 cd 3d a1 59 ca 3c a1 8e 00 3d
       0.15296319 0.100505024 0.024700942 0.03138602
000080 41 c7 10 3e fc 97 c5 bd 3e b9 02 bd 34 61 bd 3d
       0.1413851 -0.09648129 -0.031914942 0.09247056
000090 20 2e cc bd 66 19 a0 3c 5c 65 85 bd c3 ea ee 3b
       -0.09969735 0.01954336 -0.065134734 0.0072911694
0000a0 c8 2b c0 bc 2e 57 d7 bc 3b f0 e6 bc d3 7a 84 3d
       -0.023458377 -0.026286688 -0.028190723 0.06468739
0000b0 b3 05 b1 3d bc 58 35 bd 13 06 86 bd 06 27 19 bd
       0.08643665 -0.044274077 -0.06544127 -0.03739073
0000c0 84 87 03 3e 15 52 15 3e c8 6e b9 3d 71 c7 f1 3d
       0.12844664 0.14582093 0.09054333 0.118056186
0000d0 be 76 ec bc 14 e7 94 bd 67 78 f0 bc 3c f2 77 bd
       -0.028865214 -0.07270637 -0.029354287 -0.060533747
0000e0 9a 3d fb 3d 44 24 d5 bc 23 15 36 bd 92 3d 5c 3d
       0.12267609 -0.02601827 -0.04445375 0.053769656
0000f0 80 3c c7 3d 7c c5 1d 3d d8 a8 32 3e 8c 0d 05 3c
       0.09728336 0.038518414 0.17447221 0.008120906
000100 a0 81 fd 3d d5 4e f2 bc 9f 19 c7 bd 05 4b 8c 3d
       0.1237824 -0.029578606 -0.09721684 0.06850246
000110 52 b1 9f 3d 91 ab 23 bd e8 4d 1d 3e 72 5f 83 bb
       0.07797493 -0.03995854 0.1536175 -0.0040091807
000120 f6 fe d0 3d fa d1 90 bd ac 19 5b bd fe 40 1c 3d
       0.1020488 -0.070713 -0.05349128 0.03814792
000130 87 41 ab 3d 6e 74 09 be fd 91 d1 3c 3a 04 32 bd
       0.08362108 -0.1342332 0.025582308 -0.043461062
000140 30 5c e4 bc 67 ba fa 3d f0 ea 83 3d 61 8d ca bd
       -0.02787599 0.12242585 0.06441295 -0.09890247
000150 9c 1b f2 bd f2 55 60 bc 8e 98 32 bd e7 38 09 3e
       -0.11821672 -0.013692366 -0.04360252 0.13400613
000160 ec 2b 9d 3d 37 f8 9c 3d 6e 18 c4 3d 57 4d af bc
       0.07674393 0.07664531 0.09574972 -0.021399183
000170 4d 7c 17 bd 33 4b 57 3b e5 12 03 3e 4c d3 6b bc
       -0.036983777 0.0032851219 0.12800176 -0.014393639
000180 19 0f 9f 3d 89 43 9d 3d 13 87 b2 bd fd a2 91 bd
       0.077665515 0.07678897 -0.087171696 -0.07111166
000190 50 df ba 3d 01 5c 7d bd a5 a2 92 bb 1a 18 31 3c
       0.09124625 -0.06185532 -0.004474955 0.010808969
0001a0 2b bc 3c 3d f6 73 68 bd e5 99 4c 3a 58 da 7a bc
       0.04607789 -0.056751214 0.00078049145 -0.015310846
0001b0 a0 ab b9 3d 8f bf 2e 3d b3 94 a3 bb 33 6b e9 3d
       0.09065938 0.042663153 -0.0049920916 0.113974
0001c0 df 0d 80 3c f5 73 cd 3b 9f a5 78 bd 17 0f 16 bc
       0.015631614 0.0062699267 -0.060704824 -0.009158871
0001d0 63 16 b3 3d 0b 26 59 3d c2 4f cc 3d 4f f5 4b 3d
       0.08744504 0.053014796 0.0997615 0.04979449
0001e0 ba 88 4c bc 37 31 b0 3d b7 0e f0 3c e5 89 16 3e
       -0.01248377 0.08603137 0.029303892 0.1470104
0001f0 72 84 82 3d 04 da 51 bd e4 83 d9 bc 4f 07 55 bd
       0.06372918 -0.051233307 -0.026552148 -0.052008923
000200 c8 6c d1 3c f8 0d ae bd ef c5 f2 3c 8e cd 0d 3e
       0.025564566 -0.08498758 0.029635398 0.13847944
000210 b1 9a b4 bd 2b 24 a1 3d e3 2d 44 3c c1 d8 d0 3c
       -0.088185675 0.078682266 0.011973831 0.025493981
000220 c6 c6 af bd 52 ab da 3d 94 04 d9 3d 0e f8 c5 3c
       -0.08582835 0.10677208 0.10596576 0.024166133
000230 8a 10 ad bd e5 08 bc bd b9 95 a3 3d 0b 8d 0c be
       -0.0845042 -0.09181384 0.07987542 -0.13725679
000240 66 4e d1 3d 5d 6c a9 bc 1e af 66 3d 92 07 a7 3b
       0.102200314 -0.020681554 0.05631935 0.005097338
000250 c5 af 38 bd 13 89 66 3d d2 28 ad 3c a2 b1 f9 bc
       -0.045089502 0.056283068 0.021137629 -0.03048021
000260 cb 64 a5 3d 3e b4 62 3d 92 4c 1b 3d 6e 8e 3c 3e
       0.08075865 0.055347674 0.03791482 0.18413708
000270 2d 31 69 3d 62 09 d7 3d 88 f5 0a 3e 85 ca 11 bd
       0.056931663 0.104998365 0.13570225 -0.03559353
000280 98 ce 82 bc 43 d6 e8 3d 51 21 0c bd 09 21 86 bd
       -0.015967652 0.11368992 -0.03421146 -0.0654927
000290 02 73 58 3e a3 b8 10 bd fe b0 3c 3c 0f ec 1f 3e
       0.21137622 -0.035332333 0.011516808 0.15617393
0002a0 fb 87 b6 bc e3 52 f4 3d 76 99 50 3d 39 9a fb bd
       -0.022281637 0.11929872 0.0509276 -0.12285275
0002b0 c8 e5 ca 3d f6 af ee bc 75 65 a0 3c 05 5d 39 3e
       0.099071085 -0.02913664 0.019579628 0.1810189
0002c0 01 1b 2e bd b2 ef 59 3d b0 45 d2 3d 19 02 be bd
       -0.04250622 0.053207107 0.10267198 -0.09277744
0002d0 36 16 b1 bd ac 9c 11 3e f5 3f 3b 3e 47 81 80 bd
       -0.086468145 0.14219922 0.18286116 -0.06274658
0002e0 f6 9b fa 3c 32 1e 22 3e 13 4c 2c 3d 2a 22 d0 3d
       0.030591946 0.15831831 0.042064738 0.10162766
0002f0 4f bc fb 3b 1d 4d 40 3e 34 c4 e4 3d b8 d1 af 3b
       0.0076823602 0.18779416 0.11170235 0.0053655766
000300 49 b1 cb 3d 90 97 fd 3d ab bc 53 bd 57 a6 84 bd
       0.09945924 0.12382424 -0.0516936 -0.06477039
000310 9c bb 92 3d ac 90 31 3e 4e 8d 07 3e ae 79 97 3d
       0.0716469 0.17340344 0.13237497 0.073962554

rnn.weight_ih_l1 f4 [200, 50]
000000 54 4b 72 bd 54 3d 9f 3d 23 69 fe 3d 2d 98 01 be
       -0.05915387 0.07775369 0.12422397 -0.12655707
000010 f3 77 0e be be b2 5e bd 17 95 d0 3d d9 dc 91 3d
       -0.13912944 -0.05436968 0.10184687 0.071222015
000020 57 f1 15 3c d7 12 68 bd 7e 77 3f bc 0b c9 82 3d
       0.009151778 -0.056658592 -0.011686204 0.06386002
000030 fb ab e7 3d 10 00 b9 3d f5 82 d6 3c 47 26 0d bd
       0.113120995 0.09033215 0.026185492 -0.034460332
000040 00 92 50 bd 6d 9d 44 be ff ad fc 3d cb 3b 2c 3e
       -0.050920486 -0.19200678 0.123378746 0.16819684
000050 09 31 b6 bd d9 a0 dd 3c 7c 83 f6 bd 4a 13 18 3d
       -0.088960715 0.027054237 -0.120367974 0.03712777
000060 96 35 b2 bd e9 56 d3 3d ee d9 87 bb ef fa 44 3d
       -0.08701627 0.10319311 -0.0041458523 0.04809087
000070 42 49 30 be 46 bd d0 bd 99 62 2b 3e 61 1a e7 bd
       -0.17215446 -0.10192351 0.16736831 -0.11284328
000080 e1 95 69 3e 11 67 86 bc 70 84 f5 3d be dd 1e be
       0.2281108 -0.016406568 0.11988151 -0.15514275
000090 41 de ff bd dc 04 12 bd b7 23 df bd f3 e0 44 bd
       -0.124935634 -0.035649166 -0.10895484 -0.04806609
0000a0 89 73 4d 3c c2 cb 41 bd 56 a5 be bd d2 e2 cd 3d
       0.012539753 -0.04731346 -0.09308879 0.10053028
0000b0 f4 0c d6 bd dd cc 5b bb 63 bf 28 be 14 cb 9f 3d
       -0.10451689 -0.0033538856 -0.16479258 0.07802406
0000c0 e0 6c 9f 3c e3 e6 54 3b 03 ee fb bc 2d c4 99 bd
       0.019461095 0.0032486252 -0.030753141 -0.07508121
0000d0 30 e9 99 bb ee bf 68 3d 77 90 09 3e 0d 8a f2 3d
       -0.0046969876 0.056823663 0.13434015 0.11842737
0000e0 38 c0 6f bd 66 64 01 3e 4e 4e 9e 3d aa fd ae 3d
       -0.058532923 0.12635955 0.07729779 0.08544476
0000f0 99 5b 48 bd 7e d4 83 3a ba 4d 0e 3e 46 9f d6 bd
       -0.04891548 0.0010057834 0.13896838 -0.10479598
000100 ad d5 3a 3c dd ee 23 3c fb 82 2e ba 90 fa 21 bc
       0.011403483 0.01000568 -0.0006657091 -0.009886399
000110 51 17 9a 3d 33 ff 9c bd bc 32 04 bd 25 74 92 3d
       0.075239785 -0.07665863 -0.032274947 0.07151059
000120 e8 4d 21 bd 62 7a 3a 3d 7f 55 dc bc 4a 7d f6 bd
       -0.039380938 0.04552687 -0.026896236 -0.12035616
000130 ef 9a dd bd f8 b1 18 be cd 8a d6 bd 94 65 2d bd
       -0.10820567 -0.1491164 -0.10475693 -0.0423332
000140 98 be 17 3b b4 49 bd bc 7e 5b a7 bd 25 3a 88 bd
       0.0023154374 -0.023106433 -0.081717476 -0.06651715
000150 a3 3c 70 3d 76 b8 da bd f3 05 27 3c 5a 8e c6 3c
       0.058651578 -0.106797144 0.0101942895 0.0242378
000160 68 3c 97 bd 7a 16 c0 3d a7 14 d5 3c 06 8d ad 3c
       -0.073845685 0.09379287 0.026010824 0.02118541
000170 0e a8 1f bc 8b 41 a3 3d 75 15 8e 3d 6c e4 1c 3e
       -0.009744657 0.07971486 0.06937686 0.15321511
000180 27 de 1a 3d a0 5a 46 bd d9 b9 83 bd 86 c1 19 3e
       0.037809517 -0.04842627 -0.06431932 0.1501523
000190 ad aa 6f 3c af e0 b0 3c f9 16 a0 bd 04 1b f3 3d
       0.014628095 0.021591512 -0.07816882 0.11870387
0001a0 23 9b b9 bb fa 0d 82 3b 83 a7 0d 3e 02 29 93 bc
       -0.0056642457 0.0039689513 0.13833432 -0.01796389
0001b0 a9 3e ae 3d 4c 29 28 bd e1 ac 5f bd b0 5e 0e 3d
       0.08508045 -0.04105501 -0.05460823 0.03475827
0001c0 ad b2 e0 3d 94 76 8b 3c 8b e0 ce 3d 37 ac fe bb
       0.1097158 0.017024316 0.10101422 -0.0077719945
0001d0 87 1a 8c 3d 91 ff 14 3e cd b0 e7 3d ea 05 f4 bd
       0.06840997 0.14550616 0.11313019 -0.119151905
0001e0 10 a3 fd 3c eb 42 73 bc dc 9a 3e bd 9d 29 4e be
       0.030961543 -0.014847497 -0.046534404 -0.20133062
0001f0 d2 d7 0c 3e a1 a3 dd bd 15 7f cb 3d 40 1e f8 3d
       0.13754204 -0.10822225 0.09936348 0.12115145
000200 7d ba e8 bd d1 05 f4 3d fb 93 17 3e e4 f7 55 3b
       -0.11363695 0.11915172 0.14802544 0.0032648975
000210 82 b3 72 bd f2 0b 0a 3e 4f 54 fe 3d e2 dd ef 3d
       -0.059253223 0.1348112 0.12418424 0.11712243
000220 2e fc 84 3b bb 9e dd 3d ac d4 56 bd 3c 2a 0f be
       0.0040583825 0.10821291 -0.052448913 -0.13980955
000230 c6 9d d1 bd e4 5a 2a be 79 35 b7 3d e7 3e c0 3d
       -0.10235171 -0.16636235 0.08945746 0.09386998
000240 2e 5a 37 3d 1d d6 41 3b 63 08 e1 bd bf 9c c3 3d
       0.044763736 0.0029577084 -0.10987928 0.09551381
000250 97 98 9c bb 74 ad a4 3d 4f 41 4e 3c 67 a9 4f bd
       -0.0047789323 0.08040896 0.012588813 -0.050698664
000260 91 82 2e bd 41 7b c2 3c 04 36 aa bc 52 d7 f3 bc
       -0.042604987 0.023740413 -0.02077771 -0.029765759
000270 06 37 f8 bd de d2 a2 bc f5 d5 40 bd 4e 64 8c bd
       -0.1211987 -0.01987594 -0.047079045 -0.06855069
000280 65 e4 c6 bd 97 3c e3 3d 56 5c a2 3d 4e b7 e9 3c
       -0.097115315 0.11095541 0.07927768 0.02852979
000290 1a 52 fa bd cc 62 ad bd d3 fc 38 3a 72 46 2b 3b
       -0.12222691 -0.0846611 0.0007056717 0.0026134518
0002a0 5e 2a ea 3c 59 08 da 3c f2 7f f3 bd 95 fb 28 3e
       0.028584655 0.026615309 -0.11889638 0.16502221
0002b0 b7 69 d6 3b 78 36 c0 bd 61 68 a6 bd db 4d 2e bd
       0.006543364 -0.09385389 -0.081253774 -0.042554718
0002c0 e3 ad 00 3e 9a 1a 32 bd c4 1e cc 3d d5 0c a5 3d
       0.12566333 -0.0434824 0.099668056 0.08059088
0002d0 e1 63 cc 3c 00 a2 77 bd 57 c1 95 bd 74 cc 57 bd
       0.02494997 -0.06045723 -0.07312267 -0.052685216
0002e0 79 d7 d6 bd 19 48 1a 3e c4 fb 92 3d 91 26 17 3e
       -0.10490317 0.15066566 0.07176927 0.14760806
0002f0 56 e0 00 3d bd 5a ea 3d 98 ce 2c bd 9e a7 bc bd
       0.031463943 0.11443088 -0.04218921 -0.09211658
000300 c3 d5 09 be 0b e9 8d 3d 85 79 6b 3d 10 5c e8 3c
       -0.1346045 0.06929215 0.057488937 0.028364211
000310 58 06 d6 3d e2 02 8a bd 2e 39 03 be f6 88 cd bd
       0.10450429 -0.06738831 -0.12814781 -0.10035889
000320 85 37 18 bd 2d bb 43 bd ef bf e1 bd a7 05 06 be
       -0.037162323 -0.047785927 -0.110229366 -0.13088094
000330 c8 8d e6 3d 2b be 19 3e 10 c0 c6 3d 4c 2a cd 3d
       0.112575114 0.1501395 0.09704602 0.10017833
000340 35 64 ef 3d 80 fe 10 bc 08 06 34 3d 8c be dd bd
       0.11689035 -0.00884974 0.043951064 -0.108273596
000350 17 7c 57 bd bc 4c 9a 3d 76 a7 bc 3c 05 a7 db bd
       -0.052608576 0.07534167 0.02302907 -0.10725216
000360 d0 db d3 3d 3d 53 7c bd 2f b4 ee 3c 88 83 ef bd
       0.1034466 -0.06160282 0.029138653 -0.116950095
000370 ab e0 c3 3d 36 2a fe bb ca 62 2f bd 9e b3 49 3d
       0.095643364 -0.007756497 -0.042818822 0.049243562
000380 57 ca ba 3d 17 b6 ef bd 58 4e cd 3d 86 91 d9 3d
       0.091206245 -0.11704653 0.100247085 0.106234595
000390 0b bb b5 3d b2 e5 00 be cd 45 01 3c bf d4 99 3d
       0.08873566 -0.12587622 0.007890177 0.07511281
0003a0 e3 be c7 3d 2d c8 c2 3d 9d bb e6 3b 04 c6 5c 3d
       0.097532056 0.09510837 0.007041408 0.05389978
0003b0 f8 07 da bd b8 5a 0f bd 34 0b 17 be e3 0a f0 3c
       -0.10646051 -0.034998626 -0.14750367 0.029302066
0003c0 06 38 da 3d d1 16 0c be ba 26 8c 3b 2d af 8e 3d
       0.10655217 -0.13680579 0.0042770775 0.06967006
0003d0 66 38 53 3d 3d f0 7b 3d aa a1 e4 bd 8c e8 27 3d
       0.051567458 0.061508406 -0.111636475 0.04099326
0003e0 ad 86 7d bd 2b 97 b2 3d 0c 7a 85 bb 58 0a b9 3d
       -0.061896015 0.08720239 -0.004073387 0.09035176
0003f0 25 70 df 3c 74 cb a4 3d 11 5f ae bd dd c4 c3 3d
       0.027275154 0.08046618 -0.08514226 0.09559033

rnn.weight_hh_l1 f4 [200, 50]
000000 50 e6 75 3d ff c4 11 3e 29 dc 1c be 1a 27 0a 3e
       0.060034096 0.14235304 -0.1531836 0.13491479
000010 af 9a 06 be 86 27 1d 3e 86 36 1a 3d cc b7 89 3c
       -0.13144945 0.15347108 0.037649654 0.016811274
000020 42 2b 0b 3c f2 d3 b8 bb 7d 36 0c be 1d bb 87 3d
       0.0084942 -0.0056405 -0.1369266 0.06627486
000030 cd c5 55 3d f0 ae a7 bc e7 fd 93 bc ee ba 08 3d
       0.05219059 -0.020469159 -0.018065406 0.033381395
000040 7b 8d 74 3d 46 81 94 3d d3 b9 c6 bd d0 95 20 3d
       0.05970524 0.072512195 -0.09703412 0.039205372
000050 f6 f8 e9 3d e4 cd e2 bd c3 b1 98 bc 29 8f fa bd
       0.11424439 -0.11074427 -0.01863945 -0.12234337
000060 38 f7 b4 3d 87 79 16 be 82 e6 05 3e 3f 86 93 bc
       0.08836216 -0.14694797 0.13076213 -0.01800835
000070 4e 83 ab bd a9 3c e4 bc be fc 1d 3d 43 09 fb bc
       -0.08374654 -0.027860956 0.03857111 -0.030644065
000080 a1 95 91 3d d3 25 d8 3d 18 c7 07 3d c1 cb 9f bd
       0.071086176 0.105540894 0.033148855 -0.07802535
000090 1f b3 80 bc 21 71 06 3e 72 89 23 3c 24 4c ae 3d
       -0.015710412 0.13129093 0.0099815 0.085106164
0000a0 be fb 25 bc cc fc 1b bd aa ae 41 3d d1 d7 d4 bd
       -0.010130821 -0.038082883 0.047285713 -0.10392726
0000b0 74 24 e0 3d 60 3f fd 3d 25 2b 08 3e f1 7c 1a 3d
       0.10944453 0.123656034 0.13297708 0.03771681
0000c0 cc 36 20 3d 36 e9 3a be 8f 23 ff bc e4 f0 ab 3c
       0.03911476 -0.18253025 -0.031144885 0.020988889
0000d0 86 16 0a bd b9 e8 63 bd be ab 6c bb 97 62 4e bd
       -0.033712886 -0.055641863 -0.0036113109 -0.05038699
0000e0 db 65 6e bd 1a a4 88 3b fb ea af 3c 32 00 2c be
       -0.058202606 0.004169953 0.021474352 -0.1679695
0000f0 38 4e 0a 3c 4a 3b de bc 66 49 26 bc 59 f7 84 bd
       0.0084415 -0.02712788 -0.0101493355 -0.0649249
000100 33 9a 70 bd 6e 83 23 3e d8 f1 e5 3d 5e 14 ce 3d
       -0.058740806 0.15968105 0.11227769 0.100624785
000110 09 c3 ba bd 4d 05 09 be a3 2c d1 3d 97 25 0e be
       -0.09119231 -0.13380928 0.10213592 -0.13881527
000120 bc 6c d8 3d ca 61 21 be ea 2c a9 bc a6 71 10 bc
       0.105676144 -0.1575996 -0.0206513 -0.008816158
000130 8b 3c 6f bd f1 77 42 bd e3 b8 19 bc f7 d2 80 3d
       -0.058407348 -0.047477666 -0.009382459 0.06290238
000140 a4 b6 23 bd 59 71 d0 3d 1e 20 dc 3c 67 ac 3f bb
       -0.0399691 0.10177869 0.026870783 -0.0029247047
000150 44 ff 87 3c 8b f4 86 bd f2 3f 0e 3e f8 60 3b 3c
       0.016601212 -0.065896116 0.1389158 0.011436693
000160 f5 cb ac bd 50 ff 7a bd f2 58 df bd 62 57 b4 3d
       -0.08437339 -0.06127864 -0.10905637 0.088057294
000170 76 40 0f bd f8 b4 0f 3e b7 cc 1b 3e b8 3e 8a 3c
       -0.034973584 0.14033878 0.15214811 0.01687561
000180 9e 64 73 3d f2 72 0e bd 8d 33 36 bd 6a 3b a2 3c
       0.059422128 -0.03477759 -0.044482756 0.019803721
000190 0b 65 16 3d cc 38 07 bc 4a b5 fe bd bc 11 27 3d
       0.036717456 -0.0082532875 -0.12436922 0.040788397
0001a0 72 75 ee bd 67 6c 25 3e ad b7 4d bd 9f e4 d5 bb
       -0.11643495 0.16154633 -0.050223995 -0.006527498
0001b0 fa 8a 8e bd 0b 7b 6f 3b e2 27 96 bd e4 38 13 bd
       -0.069601014 0.0036541845 -0.07331826 -0.035942927
0001c0 87 3a c2 3c 3e 51 02 3e 1c 65 73 3d e7 5b bd 3c
       0.023709549 0.12726304 0.059422597 0.023115112
0001d0 a1 3b 9c bd cd 9a e1 3d d7 13 0b be ef be 13 be
       -0.07628561 0.11015854 -0.13581787 -0.14428304
0001e0 5b 41 f2 3d 64 2e 99 bd 15 20 a6 3d bc bd 03 3e
       0.11828872 -0.074795514 0.08111588 0.12865347
0001f0 ac b5 32 3e 5d 2c 0a bd 72 f6 50 bd 90 41 45 3c
       0.17452115 -0.033733714 -0.05101628 0.012039557
000200 0f 38 1c be fe 9a 02 3e ae 43 b6 3d dc 5a eb 3d
       -0.1525576 0.12754437 0.088996276 0.114919394
000210 ba 59 14 be fa fb 05 be 39 5f 73 3d b5 b0 54 3c
       -0.14487353 -0.13084403 0.059416983 0.012981583
000220 f4 04 f6 3d 88 2e ac bd 62 74 51 3b 5c d4 73 bd
       0.120126635 -0.08407313 0.0031960239 -0.059528694
000230 18 76 ca bb 03 1f ad 3d 88 f4 35 bd 81 06 19 bc
       -0.0061786287 0.08453181 -0.044422656 -0.00933993
000240 0f a4 a4 bd 4e 87 a7 3b 11 fe a3 3d 8c 91 85 bd
       -0.08039104 0.005112565 0.08007444 -0.065219015
000250 4c 1e e5 3d 9f a0 27 bd b2 f3 c1 bd ff 7c 84 3d
       0.11187419 -0.040924665 -0.09470309 0.064691536
000260 6c c7 82 bd bb e4 12 bd 8e 3a 2f 3d 9d f1 b8 3c
       -0.06385693 -0.035862666 0.04278045 0.022576148
000270 8c cb a1 bd 3a c1 a7 3d 78 47 16 3e ad b9 0f be
       -0.079001516 0.08191152 0.146757 -0.14035673
000280 33 a0 d6 bd be 8d d8 3d b2 7e 05 3e 8a dd 20 3d
       -0.10479774 0.1057391 0.13036612 0.039273776
000290 7f ac ab bc b9 4b a4 bd 5e 97 f3 bb 91 6f 7c 3d
       -0.020956276 -0.080222555 -0.007433816 0.061629836
0002a0 9b fd b4 bd 62 7e be bd 6f 3b 94 3d 01 68 cd 3b
       -0.08837434 -0.09301449 0.072378986 0.0062685017
0002b0 77 e6 9a 3d d0 7b 80 bc a4 86 85 bd fe df e0 bd
       0.07563489 -0.015684038 -0.06519821 -0.10980223
0002c0 7f 9d 97 3d 46 51 8f bd 76 c9 ca bc c2 24 0b 3e
       0.07403087 -0.069979236 -0.024754267 0.1358824
0002d0 bb ee 8c 3d 4d 26 5d bd 96 87 26 bd 7e 12 c3 3a
       0.06881472 -0.053991605 -0.04065665 0.001488283
0002e0 b8 f2 23 be 44 97 e7 3d d0 e1 58 3d 4b 93 56 3d
       -0.16010559 0.113081485 0.052949727 0.052386563
0002f0 2a 64 ad bd 88 f4 9f bd a6 43 95 bc 95 77 08 bd
       -0.084663704 -0.078103125 -0.018220734 -0.033317167
000300 d1 72 f1 3d 44 e9 07 3d 46 03 3a 3d 47 30 79 bb
       0.117894776 0.033181444 0.045413278 -0.003802316
000310 dc 18 24 be 11 a4 f3 bd 09 a5 08 be 47 b6 74 3b
       -0.16025108 -0.118965276 -0.13344206 0.003734009
000320 9e 78 61 bd 87 ec f6 bc 82 77 8d bd 8b 44 f6 3d
       -0.05504667 -0.030142082 -0.0690756 0.12024792
000330 de d9 11 bd 25 16 8b bd 14 81 07 3d 0d 73 8f bd
       -0.035608165 -0.06791333 0.033082083 -0.07004366
000340 c5 24 fd 3d 1d 8b 28 bc c2 d9 f6 bd e7 da 0f 3d
       0.12360529 -0.010287073 -0.12053253 0.03512087
000350 5a 13 b8 bc cc c8 07 3c d1 11 0f 3e a9 00 be bd
       -0.022470165 0.00828762 0.1397164 -0.0927747
000360 8e d1 02 bd cb 28 9c 3c 13 6a c0 3d e6 c1 93 bb
       -0.03193813 0.01906242 0.09395232 -0.0045091985
000370 e2 00 16 bd c9 6a fd ba e0 c1 ca 3d 04 2e e7 bd
       -0.036621936 -0.0019334193 0.0990026 -0.11288074
000380 28 ad 64 bc 0c 46 55 3d f8 fb 9b 3d 18 5e be bd
       -0.013957299 0.052068755 0.076164186 -0.09295291
000390 c5 e8 0f be a3 dc c8 bc 6c 0f 14 be b4 03 c7 bd
       -0.14053638 -0.02451927 -0.14459008 -0.09717503
0003a0 82 3f 16 be f2 76 e7 bd 69 df 12 be 67 49 f0 3d
       -0.14672664 -0.11301984 -0.14343037 0.117327504
0003b0 ce ec 56 bc 80 50 02 bd 4e 2f 0a be c4 a5 f7 3d
       -0.013117982 -0.031815052 -0.13494608 0.12092164
0003c0 89 f8 6b bd c3 64 95 3d 03 8f df bd fa 46 00 3e
       -0.05761007 0.072946094 -0.10915949 0.12527075
0003d0 a3 c0 a6 3c 21 60 14 3e 0e f2 ae bd 05 63 0e bd
       0.020355528 0.14489795 -0.08542262 -0.0347624
0003e0 ab 7a 9e bd 41 a9 4b bd b2 d6 05 bd 15 8f 26 be
       -0.07738241 -0.04972196 -0.032675453 -0.16265519
0003f0 bb 9f 5f 3d ec 04 05 3e 11 ab 29 3d c6 81 7b 3d
       0.05459569 0.12990159 0.041422907 0.06140306

rnn.bias_ih_l1 f4 [200]
000000 33 be 0b bd 43 3b 90 3d c3 d8 c1 bd 7e b6 d8 3d
       -0.034116935 0.07042553 -0.09465172 0.105816826
000010 82 d7 2e bd 40 66 f6 bc 73 7c 0a 3e 11 9c 2b 3e
       -0.042685993 -0.030078053 0.13524036 0.16758753
000020 15 7c 52 3c 17 f1 a5 bb 39 fe 8e bd cf fc e0 3b
       0.012846966 -0.0050641405 -0.06982083 0.0068660746
000030 f3 5a 18 3e 57 d9 03 3e eb 7d 3b 3d c7 46 97 3d
       0.14878444 0.12875877 0.04577438 0.073865466
000040 0f 87 09 3e 87 8b b5 3c 93 ae b8 3b 54 ac 6e 3d
       0.13430427 0.022161258 0.0056360452 0.058269814
000050 1f 67 9f bb 1a 9e d3 3d f5 ab 01 3e 0e 93 15 3e
       -0.004864588 0.1033289 0.12663253 0.14606878
000060 24 27 3a bd f2 83 3b 3d ca 90 75 3c ac 62 0d 3e
       -0.045447484 0.04578013 0.014988134 0.13807172
000070 cf 86 1f 3e c4 91 a3 3d ea 91 ff 3d fb ca b1 3a
       0.15578769 0.07986787 0.12479003 0.0013564521
000080 3c ef dd 3d a5 09 38 3e 79 b0 a0 3b 89 77 dd 3d
       0.10836646 0.17972429 0.0049038497 0.10813815
000090 c1 d0 12 3e 41 af 4c bc 17 4e dd 3c 99 45 89 bd
       0.14337446 -0.012492956 0.027014775 -0.06702728
0000a0 b8 11 81 bd 7c 1a bb bd 45 6c 00 3e 3a 01 a0 3d
       -0.06302208 -0.09135911 0.12541302 0.07812734
0000b0 0d 6e ce 3d 4d e6 01 3e 3f d0 62 bd 44 36 92 bd
       0.10079584 0.12685509 -0.05537438 -0.071392566
0000c0 9c 11 d9 bc c2 fa b0 bd d5 08 85 bd 81 d1 c8 bd
       -0.026497655 -0.08641578 -0.06495825 -0.09805585
0000d0 45 f1 49 bd 71 8b 40 3e e2 c6 8a 3d 91 88 47 3e
       -0.04930236 0.18803193 0.06776215 0.1948569
0000e0 58 35 95 bc 5b 74 29 3e cf c6 dc 3d 94 65 f0 bd
       -0.018213913 0.16548292 0.10780107 -0.117381245
0000f0 6d 11 3b bd a9 89 8c bd b4 c5 04 3e cc 5f 0f 3d
       -0.045670915 -0.06862194 0.12966043 0.03500347
000100 17 4d 4e bd 15 b9 a5 bd 35 f5 93 3d bf 00 a1 bc
       -0.050366487 -0.08091942 0.07224504 -0.019653676
000110 a3 48 aa bc a2 5c 30 3c 0c cf 03 3e 9f 8c a2 bd
       -0.020786589 0.010764273 0.12871951 -0.079369776
000120 d5 1b 3f 3d 6e 7a 2d 3a c2 55 c5 3d d6 d2 b8 bc
       0.046657402 0.000661767 0.09635498 -0.022561472
000130 6c ed bf 3c a3 70 b5 3b 7a 8a 98 3d 23 eb 04 3d
       0.023428641 0.005537109 0.07448287 0.032450806
000140 c2 f2 3b 3c 78 df 89 3d d4 23 33 3c 2b 90 6b 3c
       0.011471452 0.067320764 0.010933835 0.014377634
000150 94 00 b5 bd bb 4f 20 3e 84 0e 4c bc 6d 34 68 3d
       -0.08838001 0.15655415 -0.012454633 0.056690622
000160 14 a6 02 3e 43 0e 4c bd eb 8a 4a 3d f2 19 c7 bd
       0.12758666 -0.04981829 0.04944889 -0.097217456
000170 1b 79 73 3d c8 74 e8 bb a3 c4 63 bd 1e f4 50 bd
       0.059441667 -0.0070939995 -0.05560745 -0.05101406
000180 b7 25 0c 3e 67 b6 12 3d 4a 78 f3 bd f7 71 02 3e
       0.13686262 0.035818484 -0.11888178 0.12738787
000190 0c f6 0f be df 39 9a 3d 6e a8 06 be cd a6 f4 3d
       -0.14058703 0.07530569 -0.13150188 0.11945877
0001a0 af 49 10 3c cd 69 db 3c 17 16 90 3c cc c4 e5 bd
       0.00880663 0.026783848 0.017588658 -0.11219177
0001b0 5e 01 48 3d 73 3e 02 be ba cd b0 bd 3f a7 23 3d
       0.04882943 -0.12719135 -0.08632989 0.03995442
0001c0 b4 39 fe 3d 63 33 15 3e ce 49 00 be 7c 64 a7 3c
       0.1241335 0.14570384 -0.12528154 0.020433657
0001d0 1a 8c a1 3d 97 16 dc 3d 18 68 80 bd 28 7d 86 bd
       0.078880504 0.10746496 -0.06269854 -0.065668404
0001e0 31 b0 10 3e 8f dc 4e bd fe 53 e9 3c bb 96 28 bd
       0.14129712 -0.05050331 0.028482433 -0.041159373
0001f0 ca fa ce 3d c7 c3 8b bc e7 75 5b 3d 90 68 74 3d
       0.10106428 -0.017061127 0.053579237 0.05967003
000200 81 60 26 be 59 ff 34 bd 81 97 03 bd 4f 1e 3c bd
       -0.16247751 -0.04418883 -0.032126907 -0.045927342
000210 db 5d d6 3c 03 00 d0 bd 42 66 31 bd b0 1d ce 3d
       0.0261678 -0.10156252 -0.04331041 0.10064256
000220 26 5d 23 3d ac a4 91 3d 1c f5 f4 bd ee e6 fc 3d
       0.039883755 0.07111487 -0.119608134 0.12348734
000230 42 a0 8e 3d 87 e5 e1 bc 33 d4 96 3d 60 34 0f 3e
       0.069641605 -0.027575267 0.073646925 0.13984823
000240 e7 bb 5f bc 29 da 07 3e 1c 90 c5 3d 29 42 05 bd
       -0.013655639 0.13266815 0.09646627 -0.0325338
000250 b0 d5 86 bd 3d e0 dd 3b 22 27 ef 3d e5 b0 78 3d
       -0.065837264 0.006771116 0.11677386 0.060715575
000260 8e 81 00 3e 6e 87 03 bd c5 bb b1 bd 29 05 3c bd
       0.12549421 -0.032111578 -0.08678392 -0.04590336
000270 f8 f8 f9 3d 11 16 9d bd fd 87 8a 3d 5e 99 df bd
       0.1220569 -0.076702245 0.06764219 -0.10917924
000280 84 3b d1 3d 84 d5 a3 3c 5e bd 77 bc 57 c9 86 3d
       0.1021643 0.019999273 -0.015120832 0.06581371
000290 e3 b9 31 bd 21 ba 88 3d 32 89 00 3e 8e 06 4a 3e
       -0.043390166 0.06676126 0.12552336 0.19729063
0002a0 5a 05 08 3e 51 33 68 3c 7f 82 51 bd 89 79 1c 3e
       0.13283291 0.014172391 -0.05114984 0.15280737
0002b0 73 1e 91 3c 78 31 1b 3e 49 97 c0 3d 4e 88 ac 3d
       0.017714715 0.1515559 0.09403855 0.084244356
0002c0 66 73 09 bc bb bf 90 3c d2 5a 8a 3d 39 fd f4 3d
       -0.00838933 0.01766955 0.06755604 0.11962361
0002d0 25 35 a4 b9 a4 2d 4c 3c 46 79 e9 bc 40 d7 05 bd
       -0.00031320113 0.012462053 -0.02850021 -0.03267598
0002e0 b8 b8 12 3e 22 9d 11 3d 2c 80 fd 3d 3f b9 13 3d
       0.14328277 0.035550244 0.123779625 0.036065336
0002f0 2f 17 1e 3e 57 44 6f bd 25 19 b6 bc 82 d6 5d 3d
       0.15438531 -0.058414783 -0.022228787 0.05415965
000300 c3 b7 d4 bd c6 29 33 3d 1a f4 a2 bc 71 ec 9e 3d
       -0.10386612 0.04374101 -0.019891787 0.07759941
000310 33 48 f9 3d 01 7f 83 3d 74 6b b8 bd d0 5c 75 3d
       0.12171974 0.064207084 -0.0900487 0.059902966

rnn.bias_hh_l1 f4 [200]
000000 83 22 0b 3e 63 24 63 bb 6e 8d 88 bd b8 ff d7 bc
       0.13587384 -0.003465914 -0.066676006 -0.026367053
000010 ec 3a 15 3e a3 01 2c 3d cf 97 c4 bc fd 37 14 3e
       0.14573258 0.04199375 -0.02399817 0.14474483
000020 dc 64 fe bc 1b 2a c3 bd 25 d7 ed 3d 2c e4 27 bc
       -0.031053953 -0.09529515 0.11613301 -0.0102472715
000030 eb 4a e1 bc ee 63 91 3d 1a 5c 55 3e 0b cc f8 bc
       -0.027501544 0.07099138 0.20835915 -0.030370733
000040 20 b3 94 bd 26 8c d5 3d 05 dd 2e 3d be 8e 66 bc
       -0.07260728 0.10427122 0.04269125 -0.014072118
000050 93 f0 ba 3d ea a1 1c 3c 64 03 72 bc ef c8 22 ba
       0.09127917 0.009560088 -0.014771316 -0.0006209751
000060 da 4c 19 bc 03 0c 25 3e 95 60 f2 bc b5 92 77 3e
       -0.009356702 0.16117863 -0.02958707 0.24177058
000070 0f 9e 27 3d 1f 52 35 3e 57 81 08 3e 73 84 38 3e
       0.04092222 0.17707108 0.13330589 0.18019275
000080 01 bd 29 3c 41 72 8c 3d e2 be ab 3d a5 d0 39 3c
       0.010360003 0.0685773 0.083860174 0.011341249
000090 26 da e5 3d 99 61 98 3d c6 cf 93 3c 47 6c 2d 3c
       0.11223249 0.0744049 0.01804341 0.010584897
0000a0 e4 b9 42 bd 44 7a b9 bc 30 92 f4 3d 39 d6 8a 3d
       -0.04754056 -0.022641309 0.119419456 0.06779141
0000b0 13 88 be bd d2 fc b5 bd 5f e5 6b 3b 0e bb 84 bd
       -0.09303298 -0.08886112 0.003599487 -0.0648099
0000c0 62 bf 0c 3e d4 69 9a bd dc e6 c5 bd b4 55 b1 bd
       0.13744882 -0.07539716 -0.096631736 -0.08658925
0000d0 31 96 5c bd c6 c3 d6 3d be 2d fb 3d b0 cb 4b bc
       -0.05385417 0.104865596 0.12264584 -0.0124387
0000e0 cf 8b c2 3b b6 fe 94 bc 91 a3 27 3e c6 90 c3 3d
       0.0059370766 -0.018187862 0.1637099 0.09549098
0000f0 dc 4f 45 bc eb 69 02 3b 69 39 f8 3d 54 52 e1 3d
       -0.012042966 0.0019899558 0.12120325 0.11002031
000100 05 14 bb bb 93 1c 6d bd 5e 74 e6 3d 33 51 17 3c
       -0.0057091736 -0.05788858 0.11252664 0.009235668
000110 61 4e 0a 3e 7f 72 bb 3d 69 02 cb 3d 0c c6 1e 3e
       0.13506462 0.09152698 0.09912569 0.15505236
000120 c5 37 f3 3b 07 9b 76 3d d5 59 52 bd 5e 8c e3 3d
       0.0074224197 0.06020644 -0.0513552 0.11110757
000130 ab 82 a7 bd 54 fd e2 3d 04 69 39 3d 9e 8e c2 3c
       -0.0817922 0.11083475 0.045266166 0.023749646
000140 f2 5b 14 3e dd c5 01 3e 86 c4 1a 3d 5b 3a ab bd
       0.144882 0.12673135 0.037785076 -0.0836074
000150 73 fd e8 3d df 3d d2 bc c5 33 01 3e b7 8b 3e bd
       0.113764666 -0.025664268 0.12617405 -0.04651996
000160 dc 61 0c 3b ba 26 ed bc d5 58 e3 3d 7e 67 11 3e
       0.0021420633 -0.02894913 0.11100928 0.14199635
000170 d6 60 b5 3d 8f f0 28 3e 66 c5 32 3b 96 77 30 3b
       0.088563606 0.16498016 0.0027278303 0.0026926748
000180 51 ee 8b bc 76 90 95 bc 2b 6b 16 3e 5c 2e 9e 3c
       -0.017081412 -0.01825736 0.14689319 0.019309215
000190 24 a9 1c be 65 62 bc 3d be a9 94 3c 85 af 93 bd
       -0.15298897 0.09198455 0.018147346 -0.07211212
0001a0 6e 5b b5 bd 79 7c fc 3d ec 91 02 3d e0 c1 85 bd
       -0.088553295 0.12328429 0.031877443 -0.06531119
0001b0 9f a2 db 3d b9 f8 df bd 77 d2 d9 3b b2 6a c5 3d
       0.10724377 -0.10936112 0.006647404 0.09639491
0001c0 93 68 38 3d ab 28 05 3e 03 cf 84 3b 73 23 0b 3e
       0.045021605 0.13003795 0.004052998 0.13587742
0001d0 17 00 a0 bd 34 06 74 bc 8b 01 e9 3d af 00 ae bd
       -0.07812517 -0.014894057 0.113772474 -0.08496224
0001e0 f7 06 88 3d 96 57 63 bd e1 c7 04 3e 89 96 f3 bd
       0.066419534 -0.05550345 0.12966873 -0.11893947
0001f0 49 cb 95 3c a0 ac f5 bd 8c 89 1f 3d b1 90 c0 bd
       0.01828541 -0.11995816 0.038949534 -0.09402598
000200 7d a6 05 ba ec 06 05 3e e5 0b c7 bd e9 ea 27 3b
       -0.0005098356 0.12990922 -0.097190656 0.0025622195
000210 3a 7a f8 bc 61 54 ee bc b8 7b f4 bd f7 8d 3a bd
       -0.03033172 -0.02909297 -0.1193766 -0.045545544
000220 43 36 99 bd a7 fe 75 3c f5 6e 86 bd 4a 87 f6 3d
       -0.07481053 0.015014327 -0.06564132 0.12037523
000230 6a 53 0e 3c c4 78 e9 bd 69 30 c1 3d 61 75 bb 3b
       0.00868688 -0.11399987 0.09433062 0.0057207798
000240 5a 1f c4 3d 1b 68 f2 3c eb 85 90 3c f6 cc 03 be
       0.09576292 0.029590657 0.017641982 -0.12871155
000250 41 37 7a 3d 09 64 09 be cd 76 99 3d 07 36 09 bc
       0.06108785 -0.13417067 0.074933626 -0.0083746975
000260 be 7f fc 3b f7 e0 3f bd 35 0f 44 3c c2 e9 0f 3e
       0.0077056577 -0.046845403 0.011966516 0.14054015
000270 f0 61 17 3e 57 c0 eb 3d 1b ae 42 bd c0 0e 9e bd
       0.14783454 0.11511295 -0.04752932 -0.07717657
000280 01 1f 1f 3d e4 12 09 bd a0 be 81 3a ca aa 58 3d
       0.038847927 -0.03346528 0.000989873 0.052897252
000290 7e db 61 3e d1 48 2d 3d dc c3 05 3e 33 09 ba 3b
       0.22056386 0.04230577 0.13062996 0.005677366
0002a0 3a 7f 36 bc a4 73 20 3e 98 4d eb 3d b0 bc 23 3e
       -0.011138732 0.15669113 0.11489409 0.15989947
0002b0 57 b3 1a 3e 7c cf 16 3e 58 d3 19 bd 70 27 7b 3d
       0.15107475 0.14727587 -0.03755507 0.061316907
0002c0 b1 6e 90 3d fb 7d 03 3e 54 c4 3b 3d bf 7b 17 3d
       0.07052363 0.12841026 0.04584153 0.036983248
0002d0 ff d3 2d ba 61 63 e6 3c e6 25 0c 3e 11 db 27 3e
       -0.0006631016 0.02812356 0.13686332 0.16392161
0002e0 3a 2b 65 3d bb 20 d2 bc 5f 34 b8 3d 65 54 eb 3c
       0.055949427 -0.025650373 0.08994364 0.028726766
0002f0 ce 38 9b bd 8f c2 73 3d af ec 7b bc 44 5b 29 3e
       -0.07579194 0.059511717 -0.015376254 0.16538721
000300 fd 76 d2 bd 3a 05 7c bc 25 a3 05 be b2 ea 2a bd
       -0.102766015 -0.0153821055 -0.13050516 -0.04172773
000310 73 13 f9 3c 12 7d 0f 3e 4a 72 0f 3e dd 8c 17 3e
       0.030404782 0.14012554 0.14008442 0.14799829
